node {
  name: "Const"
  op: "Const"
  attr {
    key: "dtype"
    value {
      type: DT_FLOAT
    }
  }
  attr {
    key: "value"
    value {
      tensor {
        dtype: DT_FLOAT
        tensor_shape {
          dim {
            size: 7
          }
        }
        tensor_content: "…"
      }
    }
  }
}
node {
  name: "image_tensor"
  op: "Placeholder"
  attr {
    key: "dtype"
    value {
      type: DT_UINT8
    }
  }
  attr {
    key: "shape"
    value {
      shape {
        dim {
          size: -1
        }
        dim {
          size: -1
        }
        dim {
          size: -1
        }
        dim {
          size: 3
        }
      }
    }
  }
}
node {
  name: "ToFloat"
  op: "Cast"
  input: "image_tensor"
  attr {
    key: "DstT"
    value {
      type: DT_FLOAT
    }
  }
  attr {
    key: "SrcT"
    value {
      type: DT_UINT8
    }
  }
  attr {
    key: "Truncate"
    value {
      b: false
    }
  }
}
node {
  name: "Preprocessor/map/Shape"
  op: "Shape"
  input: "ToFloat"
  attr {
    key: "T"
    value {
      type: DT_FLOAT
    }
  }
  attr {
    key: "out_type"
    value {
      type: DT_INT32
    }
  }
}
node {
  name: "Preprocessor/map/strided_slice/stack"
  op: "Const"
  attr {
    key: "dtype"
    value {
      type: DT_INT32
    }
  }
  attr {
    key: "value"
    value {
      tensor {
        dtype: DT_INT32
        tensor_shape {
          dim {
            size: 1
          }
        }
        int_val: 0
      }
    }
  }
}
node {
  name: "Preprocessor/map/strided_slice/stack_1"
  op: "Const"
  attr {
    key: "dtype"
    value {
      type: DT_INT32
    }
  }
  attr {
    key: "value"
    value {
      tensor {
        dtype: DT_INT32
        tensor_shape {
          dim {
            size: 1
          }
        }
        int_val: 1
      }
    }
  }
}
node {
  name: "Preprocessor/map/strided_slice/stack_2"
  op: "Const"
  attr {
    key: "dtype"
    value {
      type: DT_INT32
    }
  }
  attr {
    key: "value"
    value {
      tensor {
        dtype: DT_INT32
        tensor_shape {
          dim {
            size: 1
          }
        }
        int_val: 1
      }
    }
  }
}
node {
  name: "Preprocessor/map/strided_slice"
  op: "StridedSlice"
  input: "Preprocessor/map/Shape"
  input: "Preprocessor/map/strided_slice/stack"
  input: "Preprocessor/map/strided_slice/stack_1"
  input: "Preprocessor/map/strided_slice/stack_2"
  attr {
    key: "Index"
    value {
      type: DT_INT32
    }
  }
  attr {
    key: "T"
    value {
      type: DT_INT32
    }
  }
  attr {
    key: "begin_mask"
    value {
      i: 0
    }
  }
  attr {
    key: "ellipsis_mask"
    value {
      i: 0
    }
  }
  attr {
    key: "end_mask"
    value {
      i: 0
    }
  }
  attr {
    key: "new_axis_mask"
    value {
      i: 0
    }
  }
  attr {
    key: "shrink_axis_mask"
    value {
      i: 1
    }
  }
}
node {
  name: "Preprocessor/map/TensorArray"
  op: "TensorArrayV3"
  input: "Preprocessor/map/strided_slice"
  attr {
    key: "clear_after_read"
    value {
      b: true
    }
  }
  attr {
    key: "dtype"
    value {
      type: DT_FLOAT
    }
  }
  attr {
    key: "dynamic_size"
    value {
      b: false
    }
  }
  attr {
    key: "element_shape"
    value {
      shape {
        unknown_rank: true
      }
    }
  }
  attr {
    key: "identical_element_shapes"
    value {
      b: true
    }
  }
  attr {
    key: "tensor_array_name"
    value {
      s: ""
    }
  }
}
node {
  name: "Preprocessor/map/TensorArrayUnstack/Shape"
  op: "Shape"
  input: "ToFloat"
  attr {
    key: "T"
    value {
      type: DT_FLOAT
    }
  }
  attr {
    key: "out_type"
    value {
      type: DT_INT32
    }
  }
}
node {
  name: "Preprocessor/map/TensorArrayUnstack/strided_slice/stack"
  op: "Const"
  attr {
    key: "dtype"
    value {
      type: DT_INT32
    }
  }
  attr {
    key: "value"
    value {
      tensor {
        dtype: DT_INT32
        tensor_shape {
          dim {
            size: 1
          }
        }
        int_val: 0
      }
    }
  }
}
node {
  name: "Preprocessor/map/TensorArrayUnstack/strided_slice/stack_1"
  op: "Const"
  attr {
    key: "dtype"
    value {
      type: DT_INT32
    }
  }
  attr {
    key: "value"
    value {
      tensor {
        dtype: DT_INT32
        tensor_shape {
          dim {
            size: 1
          }
        }
        int_val: 1
      }
    }
  }
}
node {
  name: "Preprocessor/map/TensorArrayUnstack/strided_slice/stack_2"
  op: "Const"
  attr {
    key: "dtype"
    value {
      type: DT_INT32
    }
  }
  attr {
    key: "value"
    value {
      tensor {
        dtype: DT_INT32
        tensor_shape {
          dim {
            size: 1
          }
        }
        int_val: 1
      }
    }
  }
}
node {
  name: "Preprocessor/map/TensorArrayUnstack/strided_slice"
  op: "StridedSlice"
  input: "Preprocessor/map/TensorArrayUnstack/Shape"
  input: "Preprocessor/map/TensorArrayUnstack/strided_slice/stack"
  input: "Preprocessor/map/TensorArrayUnstack/strided_slice/stack_1"
  input: "Preprocessor/map/TensorArrayUnstack/strided_slice/stack_2"
  attr {
    key: "Index"
    value {
      type: DT_INT32
    }
  }
  attr {
    key: "T"
    value {
      type: DT_INT32
    }
  }
  attr {
    key: "begin_mask"
    value {
      i: 0
    }
  }
  attr {
    key: "ellipsis_mask"
    value {
      i: 0
    }
  }
  attr {
    key: "end_mask"
    value {
      i: 0
    }
  }
  attr {
    key: "new_axis_mask"
    value {
      i: 0
    }
  }
  attr {
    key: "shrink_axis_mask"
    value {
      i: 1
    }
  }
}
node {
  name: "Preprocessor/map/TensorArrayUnstack/range/start"
  op: "Const"
  attr {
    key: "dtype"
    value {
      type: DT_INT32
    }
  }
  attr {
    key: "value"
    value {
      tensor {
        dtype: DT_INT32
        tensor_shape {
        }
        int_val: 0
      }
    }
  }
}
node {
  name: "Preprocessor/map/TensorArrayUnstack/range/delta"
  op: "Const"
  attr {
    key: "dtype"
    value {
      type: DT_INT32
    }
  }
  attr {
    key: "value"
    value {
      tensor {
        dtype: DT_INT32
        tensor_shape {
        }
        int_val: 1
      }
    }
  }
}
node {
  name: "Preprocessor/map/TensorArrayUnstack/range"
  op: "Range"
  input: "Preprocessor/map/TensorArrayUnstack/range/start"
  input: "Preprocessor/map/TensorArrayUnstack/strided_slice"
  input: "Preprocessor/map/TensorArrayUnstack/range/delta"
  attr {
    key: "Tidx"
    value {
      type: DT_INT32
    }
  }
}
node {
  name: "Preprocessor/map/TensorArrayUnstack/TensorArrayScatter/TensorArrayScatterV3"
  op: "TensorArrayScatterV3"
  input: "Preprocessor/map/TensorArray"
  input: "Preprocessor/map/TensorArrayUnstack/range"
  input: "ToFloat"
  input: "Preprocessor/map/TensorArray:1"
  attr {
    key: "T"
    value {
      type: DT_FLOAT
    }
  }
  attr {
    key: "_class"
    value {
      list {
        s: "loc:@ToFloat"
      }
    }
  }
}
node {
  name: "Preprocessor/map/Const"
  op: "Const"
  attr {
    key: "dtype"
    value {
      type: DT_INT32
    }
  }
  attr {
    key: "value"
    value {
      tensor {
        dtype: DT_INT32
        tensor_shape {
        }
        int_val: 0
      }
    }
  }
}
node {
  name: "Preprocessor/map/TensorArray_1"
  op: "TensorArrayV3"
  input: "Preprocessor/map/strided_slice"
  attr {
    key: "clear_after_read"
    value {
      b: true
    }
  }
  attr {
    key: "dtype"
    value {
      type: DT_FLOAT
    }
  }
  attr {
    key: "dynamic_size"
    value {
      b: false
    }
  }
  attr {
    key: "element_shape"
    value {
      shape {
        unknown_rank: true
      }
    }
  }
  attr {
    key: "identical_element_shapes"
    value {
      b: true
    }
  }
  attr {
    key: "tensor_array_name"
    value {
      s: ""
    }
  }
}
node {
  name: "Preprocessor/map/TensorArray_2"
  op: "TensorArrayV3"
  input: "Preprocessor/map/strided_slice"
  attr {
    key: "clear_after_read"
    value {
      b: true
    }
  }
  attr {
    key: "dtype"
    value {
      type: DT_INT32
    }
  }
  attr {
    key: "dynamic_size"
    value {
      b: false
    }
  }
  attr {
    key: "element_shape"
    value {
      shape {
        unknown_rank: true
      }
    }
  }
  attr {
    key: "identical_element_shapes"
    value {
      b: true
    }
  }
  attr {
    key: "tensor_array_name"
    value {
      s: ""
    }
  }
}
node {
  name: "Preprocessor/map/while/iteration_counter"
  op: "Const"
  attr {
    key: "dtype"
    value {
      type: DT_INT32
    }
  }
  attr {
    key: "value"
    value {
      tensor {
        dtype: DT_INT32
        tensor_shape {
        }
        int_val: 0
      }
    }
  }
}
node {
  name: "Preprocessor/map/while/Enter"
  op: "Enter"
  input: "Preprocessor/map/while/iteration_counter"
  attr {
    key: "T"
    value {
      type: DT_INT32
    }
  }
  attr {
    key: "frame_name"
    value {
      s: "Preprocessor/map/while/while_context"
    }
  }
  attr {
    key: "is_constant"
    value {
      b: false
    }
  }
  attr {
    key: "parallel_iterations"
    value {
      i: 32
    }
  }
}
node {
  name: "Preprocessor/map/while/Enter_1"
  op: "Enter"
  input: "Preprocessor/map/Const"
  attr {
    key: "T"
    value {
      type: DT_INT32
    }
  }
  attr {
    key: "frame_name"
    value {
      s: "Preprocessor/map/while/while_context"
    }
  }
  attr {
    key: "is_constant"
    value {
      b: false
    }
  }
  attr {
    key: "parallel_iterations"
    value {
      i: 32
    }
  }
}
node {
  name: "Preprocessor/map/while/Enter_2"
  op: "Enter"
  input: "Preprocessor/map/TensorArray_1:1"
  attr {
    key: "T"
    value {
      type: DT_FLOAT
    }
  }
  attr {
    key: "frame_name"
    value {
      s: "Preprocessor/map/while/while_context"
    }
  }
  attr {
    key: "is_constant"
    value {
      b: false
    }
  }
  attr {
    key: "parallel_iterations"
    value {
      i: 32
    }
  }
}
node {
  name: "Preprocessor/map/while/Enter_3"
  op: "Enter"
  input: "Preprocessor/map/TensorArray_2:1"
  attr {
    key: "T"
    value {
      type: DT_FLOAT
    }
  }
  attr {
    key: "frame_name"
    value {
      s: "Preprocessor/map/while/while_context"
    }
  }
  attr {
    key: "is_constant"
    value {
      b: false
    }
  }
  attr {
    key: "parallel_iterations"
    value {
      i: 32
    }
  }
}
node {
  name: "Preprocessor/map/while/Merge"
  op: "Merge"
  input: "Preprocessor/map/while/Enter"
  input: "Preprocessor/map/while/NextIteration"
  attr {
    key: "N"
    value {
      i: 2
    }
  }
  attr {
    key: "T"
    value {
      type: DT_INT32
    }
  }
}
node {
  name: "Preprocessor/map/while/Merge_1"
  op: "Merge"
  input: "Preprocessor/map/while/Enter_1"
  input: "Preprocessor/map/while/NextIteration_1"
  attr {
    key: "N"
    value {
      i: 2
    }
  }
  attr {
    key: "T"
    value {
      type: DT_INT32
    }
  }
}
node {
  name: "Preprocessor/map/while/Merge_2"
  op: "Merge"
  input: "Preprocessor/map/while/Enter_2"
  input: "Preprocessor/map/while/NextIteration_2"
  attr {
    key: "N"
    value {
      i: 2
    }
  }
  attr {
    key: "T"
    value {
      type: DT_FLOAT
    }
  }
}
node {
  name: "Preprocessor/map/while/Merge_3"
  op: "Merge"
  input: "Preprocessor/map/while/Enter_3"
  input: "Preprocessor/map/while/NextIteration_3"
  attr {
    key: "N"
    value {
      i: 2
    }
  }
  attr {
    key: "T"
    value {
      type: DT_FLOAT
    }
  }
}
node {
  name: "Preprocessor/map/while/Less"
  op: "Less"
  input: "Preprocessor/map/while/Merge"
  input: "Preprocessor/map/while/Less/Enter"
  attr {
    key: "T"
    value {
      type: DT_INT32
    }
  }
}
node {
  name: "Preprocessor/map/while/Less/Enter"
  op: "Enter"
  input: "Preprocessor/map/strided_slice"
  attr {
    key: "T"
    value {
      type: DT_INT32
    }
  }
  attr {
    key: "frame_name"
    value {
      s: "Preprocessor/map/while/while_context"
    }
  }
  attr {
    key: "is_constant"
    value {
      b: true
    }
  }
  attr {
    key: "parallel_iterations"
    value {
      i: 32
    }
  }
}
node {
  name: "Preprocessor/map/while/Less_1"
  op: "Less"
  input: "Preprocessor/map/while/Merge_1"
  input: "Preprocessor/map/while/Less/Enter"
  attr {
    key: "T"
    value {
      type: DT_INT32
    }
  }
}
node {
  name: "Preprocessor/map/while/LogicalAnd"
  op: "LogicalAnd"
  input: "Preprocessor/map/while/Less"
  input: "Preprocessor/map/while/Less_1"
}
node {
  name: "Preprocessor/map/while/LoopCond"
  op: "LoopCond"
  input: "Preprocessor/map/while/LogicalAnd"
}
node {
  name: "Preprocessor/map/while/Switch"
  op: "Switch"
  input: "Preprocessor/map/while/Merge"
  input: "Preprocessor/map/while/LoopCond"
  attr {
    key: "T"
    value {
      type: DT_INT32
    }
  }
  attr {
    key: "_class"
    value {
      list {
        s: "loc:@Preprocessor/map/while/Merge"
      }
    }
  }
}
node {
  name: "Preprocessor/map/while/Switch_1"
  op: "Switch"
  input: "Preprocessor/map/while/Merge_1"
  input: "Preprocessor/map/while/LoopCond"
  attr {
    key: "T"
    value {
      type: DT_INT32
    }
  }
  attr {
    key: "_class"
    value {
      list {
        s: "loc:@Preprocessor/map/while/Merge_1"
      }
    }
  }
}
node {
  name: "Preprocessor/map/while/Switch_2"
  op: "Switch"
  input: "Preprocessor/map/while/Merge_2"
  input: "Preprocessor/map/while/LoopCond"
  attr {
    key: "T"
    value {
      type: DT_FLOAT
    }
  }
  attr {
    key: "_class"
    value {
      list {
        s: "loc:@Preprocessor/map/while/Merge_2"
      }
    }
  }
}
node {
  name: "Preprocessor/map/while/Switch_3"
  op: "Switch"
  input: "Preprocessor/map/while/Merge_3"
  input: "Preprocessor/map/while/LoopCond"
  attr {
    key: "T"
    value {
      type: DT_FLOAT
    }
  }
  attr {
    key: "_class"
    value {
      list {
        s: "loc:@Preprocessor/map/while/Merge_3"
      }
    }
  }
}
node {
  name: "Preprocessor/map/while/Identity"
  op: "Identity"
  input: "Preprocessor/map/while/Switch:1"
  attr {
    key: "T"
    value {
      type: DT_INT32
    }
  }
}
node {
  name: "Preprocessor/map/while/Identity_1"
  op: "Identity"
  input: "Preprocessor/map/while/Switch_1:1"
  attr {
    key: "T"
    value {
      type: DT_INT32
    }
  }
}
node {
  name: "Preprocessor/map/while/Identity_2"
  op: "Identity"
  input: "Preprocessor/map/while/Switch_2:1"
  attr {
    key: "T"
    value {
      type: DT_FLOAT
    }
  }
}
node {
  name: "Preprocessor/map/while/Identity_3"
  op: "Identity"
  input: "Preprocessor/map/while/Switch_3:1"
  attr {
    key: "T"
    value {
      type: DT_FLOAT
    }
  }
}
node {
  name: "Preprocessor/map/while/add/y"
  op: "Const"
  input: "^Preprocessor/map/while/Identity"
  attr {
    key: "dtype"
    value {
      type: DT_INT32
    }
  }
  attr {
    key: "value"
    value {
      tensor {
        dtype: DT_INT32
        tensor_shape {
        }
        int_val: 1
      }
    }
  }
}
node {
  name: "Preprocessor/map/while/add"
  op: "Add"
  input: "Preprocessor/map/while/Identity"
  input: "Preprocessor/map/while/add/y"
  attr {
    key: "T"
    value {
      type: DT_INT32
    }
  }
}
node {
  name: "Preprocessor/map/while/TensorArrayReadV3"
  op: "TensorArrayReadV3"
  input: "Preprocessor/map/while/TensorArrayReadV3/Enter"
  input: "Preprocessor/map/while/Identity_1"
  input: "Preprocessor/map/while/TensorArrayReadV3/Enter_1"
  attr {
    key: "dtype"
    value {
      type: DT_FLOAT
    }
  }
}
node {
  name: "Preprocessor/map/while/TensorArrayReadV3/Enter"
  op: "Enter"
  input: "Preprocessor/map/TensorArray"
  attr {
    key: "T"
    value {
      type: DT_RESOURCE
    }
  }
  attr {
    key: "frame_name"
    value {
      s: "Preprocessor/map/while/while_context"
    }
  }
  attr {
    key: "is_constant"
    value {
      b: true
    }
  }
  attr {
    key: "parallel_iterations"
    value {
      i: 32
    }
  }
}
node {
  name: "Preprocessor/map/while/TensorArrayReadV3/Enter_1"
  op: "Enter"
  input: "Preprocessor/map/TensorArrayUnstack/TensorArrayScatter/TensorArrayScatterV3"
  attr {
    key: "T"
    value {
      type: DT_FLOAT
    }
  }
  attr {
    key: "frame_name"
    value {
      s: "Preprocessor/map/while/while_context"
    }
  }
  attr {
    key: "is_constant"
    value {
      b: true
    }
  }
  attr {
    key: "parallel_iterations"
    value {
      i: 32
    }
  }
}
node {
  name: "Preprocessor/map/while/ResizeImage/stack"
  op: "Const"
  input: "^Preprocessor/map/while/Identity"
  attr {
    key: "dtype"
    value {
      type: DT_INT32
    }
  }
  attr {
    key: "value"
    value {
      tensor {
        dtype: DT_INT32
        tensor_shape {
          dim {
            size: 2
          }
        }
        tensor_content: "\364\001\000\000\364\001\000\000"
      }
    }
  }
}
node {
  name: "Preprocessor/map/while/ResizeImage/resize/ExpandDims/dim"
  op: "Const"
  input: "^Preprocessor/map/while/Identity"
  attr {
    key: "dtype"
    value {
      type: DT_INT32
    }
  }
  attr {
    key: "value"
    value {
      tensor {
        dtype: DT_INT32
        tensor_shape {
        }
        int_val: 0
      }
    }
  }
}
node {
  name: "Preprocessor/map/while/ResizeImage/resize/ExpandDims"
  op: "ExpandDims"
  input: "Preprocessor/map/while/TensorArrayReadV3"
  input: "Preprocessor/map/while/ResizeImage/resize/ExpandDims/dim"
  attr {
    key: "T"
    value {
      type: DT_FLOAT
    }
  }
  attr {
    key: "Tdim"
    value {
      type: DT_INT32
    }
  }
}
node {
  name: "Preprocessor/map/while/ResizeImage/resize/ResizeBilinear"
  op: "ResizeBilinear"
  input: "Preprocessor/map/while/ResizeImage/resize/ExpandDims"
  input: "Preprocessor/map/while/ResizeImage/stack"
  attr {
    key: "T"
    value {
      type: DT_FLOAT
    }
  }
  attr {
    key: "align_corners"
    value {
      b: false
    }
  }
}
node {
  name: "Preprocessor/map/while/ResizeImage/resize/Squeeze"
  op: "Squeeze"
  input: "Preprocessor/map/while/ResizeImage/resize/ResizeBilinear"
  attr {
    key: "T"
    value {
      type: DT_FLOAT
    }
  }
  attr {
    key: "squeeze_dims"
    value {
      list {
        i: 0
      }
    }
  }
}
node {
  name: "Preprocessor/map/while/ResizeImage/Shape"
  op: "Shape"
  input: "Preprocessor/map/while/TensorArrayReadV3"
  attr {
    key: "T"
    value {
      type: DT_FLOAT
    }
  }
  attr {
    key: "out_type"
    value {
      type: DT_INT32
    }
  }
}
node {
  name: "Preprocessor/map/while/ResizeImage/strided_slice/stack"
  op: "Const"
  input: "^Preprocessor/map/while/Identity"
  attr {
    key: "dtype"
    value {
      type: DT_INT32
    }
  }
  attr {
    key: "value"
    value {
      tensor {
        dtype: DT_INT32
        tensor_shape {
          dim {
            size: 1
          }
        }
        int_val: 0
      }
    }
  }
}
node {
  name: "Preprocessor/map/while/ResizeImage/strided_slice/stack_1"
  op: "Const"
  input: "^Preprocessor/map/while/Identity"
  attr {
    key: "dtype"
    value {
      type: DT_INT32
    }
  }
  attr {
    key: "value"
    value {
      tensor {
        dtype: DT_INT32
        tensor_shape {
          dim {
            size: 1
          }
        }
        int_val: 1
      }
    }
  }
}
node {
  name: "Preprocessor/map/while/ResizeImage/strided_slice/stack_2"
  op: "Const"
  input: "^Preprocessor/map/while/Identity"
  attr {
    key: "dtype"
    value {
      type: DT_INT32
    }
  }
  attr {
    key: "value"
    value {
      tensor {
        dtype: DT_INT32
        tensor_shape {
          dim {
            size: 1
          }
        }
        int_val: 1
      }
    }
  }
}
node {
  name: "Preprocessor/map/while/ResizeImage/strided_slice"
  op: "StridedSlice"
  input: "Preprocessor/map/while/ResizeImage/Shape"
  input: "Preprocessor/map/while/ResizeImage/strided_slice/stack"
  input: "Preprocessor/map/while/ResizeImage/strided_slice/stack_1"
  input: "Preprocessor/map/while/ResizeImage/strided_slice/stack_2"
  attr {
    key: "Index"
    value {
      type: DT_INT32
    }
  }
  attr {
    key: "T"
    value {
      type: DT_INT32
    }
  }
  attr {
    key: "begin_mask"
    value {
      i: 0
    }
  }
  attr {
    key: "ellipsis_mask"
    value {
      i: 0
    }
  }
  attr {
    key: "end_mask"
    value {
      i: 0
    }
  }
  attr {
    key: "new_axis_mask"
    value {
      i: 0
    }
  }
  attr {
    key: "shrink_axis_mask"
    value {
      i: 1
    }
  }
}
node {
  name: "Preprocessor/map/while/ResizeImage/strided_slice_1/stack"
  op: "Const"
  input: "^Preprocessor/map/while/Identity"
  attr {
    key: "dtype"
    value {
      type: DT_INT32
    }
  }
  attr {
    key: "value"
    value {
      tensor {
        dtype: DT_INT32
        tensor_shape {
          dim {
            size: 1
          }
        }
        int_val: 1
      }
    }
  }
}
node {
  name: "Preprocessor/map/while/ResizeImage/strided_slice_1/stack_1"
  op: "Const"
  input: "^Preprocessor/map/while/Identity"
  attr {
    key: "dtype"
    value {
      type: DT_INT32
    }
  }
  attr {
    key: "value"
    value {
      tensor {
        dtype: DT_INT32
        tensor_shape {
          dim {
            size: 1
          }
        }
        int_val: 2
      }
    }
  }
}
node {
  name: "Preprocessor/map/while/ResizeImage/strided_slice_1/stack_2"
  op: "Const"
  input: "^Preprocessor/map/while/Identity"
  attr {
    key: "dtype"
    value {
      type: DT_INT32
    }
  }
  attr {
    key: "value"
    value {
      tensor {
        dtype: DT_INT32
        tensor_shape {
          dim {
            size: 1
          }
        }
        int_val: 1
      }
    }
  }
}
node {
  name: "Preprocessor/map/while/ResizeImage/strided_slice_1"
  op: "StridedSlice"
  input: "Preprocessor/map/while/ResizeImage/Shape"
  input: "Preprocessor/map/while/ResizeImage/strided_slice_1/stack"
  input: "Preprocessor/map/while/ResizeImage/strided_slice_1/stack_1"
  input: "Preprocessor/map/while/ResizeImage/strided_slice_1/stack_2"
  attr {
    key: "Index"
    value {
      type: DT_INT32
    }
  }
  attr {
    key: "T"
    value {
      type: DT_INT32
    }
  }
  attr {
    key: "begin_mask"
    value {
      i: 0
    }
  }
  attr {
    key: "ellipsis_mask"
    value {
      i: 0
    }
  }
  attr {
    key: "end_mask"
    value {
      i: 0
    }
  }
  attr {
    key: "new_axis_mask"
    value {
      i: 0
    }
  }
  attr {
    key: "shrink_axis_mask"
    value {
      i: 1
    }
  }
}
node {
  name: "Preprocessor/map/while/ResizeImage/stack_1"
  op: "Const"
  input: "^Preprocessor/map/while/Identity"
  attr {
    key: "dtype"
    value {
      type: DT_INT32
    }
  }
  attr {
    key: "value"
    value {
      tensor {
        dtype: DT_INT32
        tensor_shape {
          dim {
            size: 3
          }
        }
        tensor_content: "\364\001\000\000\364\001\000\000\003\000\000\000"
      }
    }
  }
}
node {
  name: "Preprocessor/map/while/TensorArrayWrite/TensorArrayWriteV3"
  op: "TensorArrayWriteV3"
  input: "Preprocessor/map/while/TensorArrayWrite/TensorArrayWriteV3/Enter"
  input: "Preprocessor/map/while/Identity_1"
  input: "Preprocessor/map/while/ResizeImage/resize/Squeeze"
  input: "Preprocessor/map/while/Identity_2"
  attr {
    key: "T"
    value {
      type: DT_FLOAT
    }
  }
  attr {
    key: "_class"
    value {
      list {
        s: "loc:@Preprocessor/map/while/ResizeImage/resize/Squeeze"
      }
    }
  }
}
node {
  name: "Preprocessor/map/while/TensorArrayWrite/TensorArrayWriteV3/Enter"
  op: "Enter"
  input: "Preprocessor/map/TensorArray_1"
  attr {
    key: "T"
    value {
      type: DT_RESOURCE
    }
  }
  attr {
    key: "_class"
    value {
      list {
        s: "loc:@Preprocessor/map/while/ResizeImage/resize/Squeeze"
      }
    }
  }
  attr {
    key: "frame_name"
    value {
      s: "Preprocessor/map/while/while_context"
    }
  }
  attr {
    key: "is_constant"
    value {
      b: true
    }
  }
  attr {
    key: "parallel_iterations"
    value {
      i: 32
    }
  }
}
node {
  name: "Preprocessor/map/while/TensorArrayWrite_1/TensorArrayWriteV3"
  op: "TensorArrayWriteV3"
  input: "Preprocessor/map/while/TensorArrayWrite_1/TensorArrayWriteV3/Enter"
  input: "Preprocessor/map/while/Identity_1"
  input: "Preprocessor/map/while/ResizeImage/stack_1"
  input: "Preprocessor/map/while/Identity_3"
  attr {
    key: "T"
    value {
      type: DT_INT32
    }
  }
  attr {
    key: "_class"
    value {
      list {
        s: "loc:@Preprocessor/map/while/ResizeImage/stack_1"
      }
    }
  }
}
node {
  name: "Preprocessor/map/while/TensorArrayWrite_1/TensorArrayWriteV3/Enter"
  op: "Enter"
  input: "Preprocessor/map/TensorArray_2"
  attr {
    key: "T"
    value {
      type: DT_RESOURCE
    }
  }
  attr {
    key: "_class"
    value {
      list {
        s: "loc:@Preprocessor/map/while/ResizeImage/stack_1"
      }
    }
  }
  attr {
    key: "frame_name"
    value {
      s: "Preprocessor/map/while/while_context"
    }
  }
  attr {
    key: "is_constant"
    value {
      b: true
    }
  }
  attr {
    key: "parallel_iterations"
    value {
      i: 32
    }
  }
}
node {
  name: "Preprocessor/map/while/add_1/y"
  op: "Const"
  input: "^Preprocessor/map/while/Identity"
  attr {
    key: "dtype"
    value {
      type: DT_INT32
    }
  }
  attr {
    key: "value"
    value {
      tensor {
        dtype: DT_INT32
        tensor_shape {
        }
        int_val: 1
      }
    }
  }
}
node {
  name: "Preprocessor/map/while/add_1"
  op: "Add"
  input: "Preprocessor/map/while/Identity_1"
  input: "Preprocessor/map/while/add_1/y"
  attr {
    key: "T"
    value {
      type: DT_INT32
    }
  }
}
node {
  name: "Preprocessor/map/while/NextIteration"
  op: "NextIteration"
  input: "Preprocessor/map/while/add"
  attr {
    key: "T"
    value {
      type: DT_INT32
    }
  }
}
node {
  name: "Preprocessor/map/while/NextIteration_1"
  op: "NextIteration"
  input: "Preprocessor/map/while/add_1"
  attr {
    key: "T"
    value {
      type: DT_INT32
    }
  }
}
node {
  name: "Preprocessor/map/while/NextIteration_2"
  op: "NextIteration"
  input: "Preprocessor/map/while/TensorArrayWrite/TensorArrayWriteV3"
  attr {
    key: "T"
    value {
      type: DT_FLOAT
    }
  }
}
node {
  name: "Preprocessor/map/while/NextIteration_3"
  op: "NextIteration"
  input: "Preprocessor/map/while/TensorArrayWrite_1/TensorArrayWriteV3"
  attr {
    key: "T"
    value {
      type: DT_FLOAT
    }
  }
}
node {
  name: "Preprocessor/map/while/Exit"
  op: "Exit"
  input: "Preprocessor/map/while/Switch"
  attr {
    key: "T"
    value {
      type: DT_INT32
    }
  }
}
node {
  name: "Preprocessor/map/while/Exit_1"
  op: "Exit"
  input: "Preprocessor/map/while/Switch_1"
  attr {
    key: "T"
    value {
      type: DT_INT32
    }
  }
}
node {
  name: "Preprocessor/map/while/Exit_2"
  op: "Exit"
  input: "Preprocessor/map/while/Switch_2"
  attr {
    key: "T"
    value {
      type: DT_FLOAT
    }
  }
}
node {
  name: "Preprocessor/map/while/Exit_3"
  op: "Exit"
  input: "Preprocessor/map/while/Switch_3"
  attr {
    key: "T"
    value {
      type: DT_FLOAT
    }
  }
}
node {
  name: "Preprocessor/map/TensorArrayStack/TensorArraySizeV3"
  op: "TensorArraySizeV3"
  input: "Preprocessor/map/TensorArray_1"
  input: "Preprocessor/map/while/Exit_2"
  attr {
    key: "_class"
    value {
      list {
        s: "loc:@Preprocessor/map/TensorArray_1"
      }
    }
  }
}
node {
  name: "Preprocessor/map/TensorArrayStack/range/start"
  op: "Const"
  attr {
    key: "_class"
    value {
      list {
        s: "loc:@Preprocessor/map/TensorArray_1"
      }
    }
  }
  attr {
    key: "dtype"
    value {
      type: DT_INT32
    }
  }
  attr {
    key: "value"
    value {
      tensor {
        dtype: DT_INT32
        tensor_shape {
        }
        int_val: 0
      }
    }
  }
}
node {
  name: "Preprocessor/map/TensorArrayStack/range/delta"
  op: "Const"
  attr {
    key: "_class"
    value {
      list {
        s: "loc:@Preprocessor/map/TensorArray_1"
      }
    }
  }
  attr {
    key: "dtype"
    value {
      type: DT_INT32
    }
  }
  attr {
    key: "value"
    value {
      tensor {
        dtype: DT_INT32
        tensor_shape {
        }
        int_val: 1
      }
    }
  }
}
node {
  name: "Preprocessor/map/TensorArrayStack/range"
  op: "Range"
  input: "Preprocessor/map/TensorArrayStack/range/start"
  input: "Preprocessor/map/TensorArrayStack/TensorArraySizeV3"
  input: "Preprocessor/map/TensorArrayStack/range/delta"
  attr {
    key: "Tidx"
    value {
      type: DT_INT32
    }
  }
  attr {
    key: "_class"
    value {
      list {
        s: "loc:@Preprocessor/map/TensorArray_1"
      }
    }
  }
}
node {
  name: "Preprocessor/map/TensorArrayStack/TensorArrayGatherV3"
  op: "TensorArrayGatherV3"
  input: "Preprocessor/map/TensorArray_1"
  input: "Preprocessor/map/TensorArrayStack/range"
  input: "Preprocessor/map/while/Exit_2"
  attr {
    key: "_class"
    value {
      list {
        s: "loc:@Preprocessor/map/TensorArray_1"
      }
    }
  }
  attr {
    key: "dtype"
    value {
      type: DT_FLOAT
    }
  }
  attr {
    key: "element_shape"
    value {
      shape {
        dim {
          size: 500
        }
        dim {
          size: 500
        }
        dim {
          size: 3
        }
      }
    }
  }
}
node {
  name: "Preprocessor/map/TensorArrayStack_1/TensorArraySizeV3"
  op: "TensorArraySizeV3"
  input: "Preprocessor/map/TensorArray_2"
  input: "Preprocessor/map/while/Exit_3"
  attr {
    key: "_class"
    value {
      list {
        s: "loc:@Preprocessor/map/TensorArray_2"
      }
    }
  }
}
node {
  name: "Preprocessor/map/TensorArrayStack_1/range/start"
  op: "Const"
  attr {
    key: "_class"
    value {
      list {
        s: "loc:@Preprocessor/map/TensorArray_2"
      }
    }
  }
  attr {
    key: "dtype"
    value {
      type: DT_INT32
    }
  }
  attr {
    key: "value"
    value {
      tensor {
        dtype: DT_INT32
        tensor_shape {
        }
        int_val: 0
      }
    }
  }
}
node {
  name: "Preprocessor/map/TensorArrayStack_1/range/delta"
  op: "Const"
  attr {
    key: "_class"
    value {
      list {
        s: "loc:@Preprocessor/map/TensorArray_2"
      }
    }
  }
  attr {
    key: "dtype"
    value {
      type: DT_INT32
    }
  }
  attr {
    key: "value"
    value {
      tensor {
        dtype: DT_INT32
        tensor_shape {
        }
        int_val: 1
      }
    }
  }
}
node {
  name: "Preprocessor/map/TensorArrayStack_1/range"
  op: "Range"
  input: "Preprocessor/map/TensorArrayStack_1/range/start"
  input: "Preprocessor/map/TensorArrayStack_1/TensorArraySizeV3"
  input: "Preprocessor/map/TensorArrayStack_1/range/delta"
  attr {
    key: "Tidx"
    value {
      type: DT_INT32
    }
  }
  attr {
    key: "_class"
    value {
      list {
        s: "loc:@Preprocessor/map/TensorArray_2"
      }
    }
  }
}
node {
  name: "Preprocessor/map/TensorArrayStack_1/TensorArrayGatherV3"
  op: "TensorArrayGatherV3"
  input: "Preprocessor/map/TensorArray_2"
  input: "Preprocessor/map/TensorArrayStack_1/range"
  input: "Preprocessor/map/while/Exit_3"
  attr {
    key: "_class"
    value {
      list {
        s: "loc:@Preprocessor/map/TensorArray_2"
      }
    }
  }
  attr {
    key: "dtype"
    value {
      type: DT_INT32
    }
  }
  attr {
    key: "element_shape"
    value {
      shape {
        dim {
          size: 3
        }
      }
    }
  }
}
node {
  name: "Preprocessor/mul/x"
  op: "Const"
  attr {
    key: "dtype"
    value {
      type: DT_FLOAT
    }
  }
  attr {
    key: "value"
    value {
      tensor {
        dtype: DT_FLOAT
        tensor_shape {
        }
        float_val: 0.007843137718737125
      }
    }
  }
}
node {
  name: "Preprocessor/mul"
  op: "Mul"
  input: "Preprocessor/mul/x"
  input: "Preprocessor/map/TensorArrayStack/TensorArrayGatherV3"
  attr {
    key: "T"
    value {
      type: DT_FLOAT
    }
  }
}
node {
  name: "Preprocessor/sub/y"
  op: "Const"
  attr {
    key: "dtype"
    value {
      type: DT_FLOAT
    }
  }
  attr {
    key: "value"
    value {
      tensor {
        dtype: DT_FLOAT
        tensor_shape {
        }
        float_val: 1.0
      }
    }
  }
}
node {
  name: "Preprocessor/sub"
  op: "Sub"
  input: "Preprocessor/mul"
  input: "Preprocessor/sub/y"
  attr {
    key: "T"
    value {
      type: DT_FLOAT
    }
  }
}
node {
  name: "FeatureExtractor/MobilenetV1/Conv2d_0/weights/Initializer/truncated_normal/shape"
  op: "Const"
  attr {
    key: "_class"
    value {
      list {
        s: "loc:@FeatureExtractor/MobilenetV1/Conv2d_0/weights"
      }
    }
  }
  attr {
    key: "dtype"
    value {
      type: DT_INT32
    }
  }
  attr {
    key: "value"
    value {
      tensor {
        dtype: DT_INT32
        tensor_shape {
          dim {
            size: 4
          }
        }
        tensor_content: "\003\000\000\000\003\000\000\000\003\000\000\000 \000\000\000"
      }
    }
  }
}
node {
  name: "FeatureExtractor/MobilenetV1/Conv2d_0/weights/Initializer/truncated_normal/mean"
  op: "Const"
  attr {
    key: "_class"
    value {
      list {
        s: "loc:@FeatureExtractor/MobilenetV1/Conv2d_0/weights"
      }
    }
  }
  attr {
    key: "dtype"
    value {
      type: DT_FLOAT
    }
  }
  attr {
    key: "value"
    value {
      tensor {
        dtype: DT_FLOAT
        tensor_shape {
        }
        float_val: 0.0
      }
    }
  }
}
node {
  name: "FeatureExtractor/MobilenetV1/Conv2d_0/weights/Initializer/truncated_normal/stddev"
  op: "Const"
  attr {
    key: "_class"
    value {
      list {
        s: "loc:@FeatureExtractor/MobilenetV1/Conv2d_0/weights"
      }
    }
  }
  attr {
    key: "dtype"
    value {
      type: DT_FLOAT
    }
  }
  attr {
    key: "value"
    value {
      tensor {
        dtype: DT_FLOAT
        tensor_shape {
        }
        float_val: 0.09000000357627869
      }
    }
  }
}
node {
  name: "FeatureExtractor/MobilenetV1/Conv2d_0/weights/Initializer/truncated_normal/TruncatedNormal"
  op: "TruncatedNormal"
  input: "FeatureExtractor/MobilenetV1/Conv2d_0/weights/Initializer/truncated_normal/shape"
  attr {
    key: "T"
    value {
      type: DT_INT32
    }
  }
  attr {
    key: "_class"
    value {
      list {
        s: "loc:@FeatureExtractor/MobilenetV1/Conv2d_0/weights"
      }
    }
  }
  attr {
    key: "dtype"
    value {
      type: DT_FLOAT
    }
  }
  attr {
    key: "seed"
    value {
      i: 0
    }
  }
  attr {
    key: "seed2"
    value {
      i: 0
    }
  }
}
node {
  name: "FeatureExtractor/MobilenetV1/Conv2d_0/weights/Initializer/truncated_normal/mul"
  op: "Mul"
  input: "FeatureExtractor/MobilenetV1/Conv2d_0/weights/Initializer/truncated_normal/TruncatedNormal"
  input: "FeatureExtractor/MobilenetV1/Conv2d_0/weights/Initializer/truncated_normal/stddev"
  attr {
    key: "T"
    value {
      type: DT_FLOAT
    }
  }
  attr {
    key: "_class"
    value {
      list {
        s: "loc:@FeatureExtractor/MobilenetV1/Conv2d_0/weights"
      }
    }
  }
}
node {
  name: "FeatureExtractor/MobilenetV1/Conv2d_0/weights/Initializer/truncated_normal"
  op: "Add"
  input: "FeatureExtractor/MobilenetV1/Conv2d_0/weights/Initializer/truncated_normal/mul"
  input: "FeatureExtractor/MobilenetV1/Conv2d_0/weights/Initializer/truncated_normal/mean"
  attr {
    key: "T"
    value {
      type: DT_FLOAT
    }
  }
  attr {
    key: "_class"
    value {
      list {
        s: "loc:@FeatureExtractor/MobilenetV1/Conv2d_0/weights"
      }
    }
  }
}
node {
  name: "FeatureExtractor/MobilenetV1/Conv2d_0/weights"
  op: "VariableV2"
  attr {
    key: "_class"
    value {
      list {
        s: "loc:@FeatureExtractor/MobilenetV1/Conv2d_0/weights"
      }
    }
  }
  attr {
    key: "container"
    value {
      s: ""
    }
  }
  attr {
    key: "dtype"
    value {
      type: DT_FLOAT
    }
  }
  attr {
    key: "shape"
    value {
      shape {
        dim {
          size: 3
        }
        dim {
          size: 3
        }
        dim {
          size: 3
        }
        dim {
          size: 32
        }
      }
    }
  }
  attr {
    key: "shared_name"
    value {
      s: ""
    }
  }
}
node {
  name: "FeatureExtractor/MobilenetV1/Conv2d_0/weights/Assign"
  op: "Assign"
  input: "FeatureExtractor/MobilenetV1/Conv2d_0/weights"
  input: "FeatureExtractor/MobilenetV1/Conv2d_0/weights/Initializer/truncated_normal"
  attr {
    key: "T"
    value {
      type: DT_FLOAT
    }
  }
  attr {
    key: "_class"
    value {
      list {
        s: "loc:@FeatureExtractor/MobilenetV1/Conv2d_0/weights"
      }
    }
  }
  attr {
    key: "use_locking"
    value {
      b: true
    }
  }
  attr {
    key: "validate_shape"
    value {
      b: true
    }
  }
}
node {
  name: "FeatureExtractor/MobilenetV1/Conv2d_0/weights/read"
  op: "Identity"
  input: "FeatureExtractor/MobilenetV1/Conv2d_0/weights"
  attr {
    key: "T"
    value {
      type: DT_FLOAT
    }
  }
  attr {
    key: "_class"
    value {
      list {
        s: "loc:@FeatureExtractor/MobilenetV1/Conv2d_0/weights"
      }
    }
  }
}
node {
  name: "FeatureExtractor/MobilenetV1/MobilenetV1/Conv2d_0/kernel/Regularizer/l2_regularizer/scale"
  op: "Const"
  attr {
    key: "dtype"
    value {
      type: DT_FLOAT
    }
  }
  attr {
    key: "value"
    value {
      tensor {
        dtype: DT_FLOAT
        tensor_shape {
        }
        float_val: 3.9999998989515007e-05
      }
    }
  }
}
node {
  name: "FeatureExtractor/MobilenetV1/MobilenetV1/Conv2d_0/kernel/Regularizer/l2_regularizer/L2Loss"
  op: "L2Loss"
  input: "FeatureExtractor/MobilenetV1/Conv2d_0/weights/read"
  attr {
    key: "T"
    value {
      type: DT_FLOAT
    }
  }
}
node {
  name: "FeatureExtractor/MobilenetV1/MobilenetV1/Conv2d_0/kernel/Regularizer/l2_regularizer"
  op: "Mul"
  input: "FeatureExtractor/MobilenetV1/MobilenetV1/Conv2d_0/kernel/Regularizer/l2_regularizer/scale"
  input: "FeatureExtractor/MobilenetV1/MobilenetV1/Conv2d_0/kernel/Regularizer/l2_regularizer/L2Loss"
  attr {
    key: "T"
    value {
      type: DT_FLOAT
    }
  }
}
node {
  name: "FeatureExtractor/MobilenetV1/MobilenetV1/Conv2d_0/dilation_rate"
  op: "Const"
  attr {
    key: "dtype"
    value {
      type: DT_INT32
    }
  }
  attr {
    key: "value"
    value {
      tensor {
        dtype: DT_INT32
        tensor_shape {
          dim {
            size: 2
          }
        }
        tensor_content: "\001\000\000\000\001\000\000\000"
      }
    }
  }
}
node {
  name: "FeatureExtractor/MobilenetV1/MobilenetV1/Conv2d_0/Conv2D"
  op: "Conv2D"
  input: "Preprocessor/sub"
  input: "FeatureExtractor/MobilenetV1/Conv2d_0/weights/read"
  attr {
    key: "T"
    value {
      type: DT_FLOAT
    }
  }
  attr {
    key: "data_format"
    value {
      s: "NHWC"
    }
  }
  attr {
    key: "dilations"
    value {
      list {
        i: 1
        i: 1
        i: 1
        i: 1
      }
    }
  }
  attr {
    key: "padding"
    value {
      s: "SAME"
    }
  }
  attr {
    key: "strides"
    value {
      list {
        i: 1
        i: 2
        i: 2
        i: 1
      }
    }
  }
  attr {
    key: "use_cudnn_on_gpu"
    value {
      b: true
    }
  }
}
node {
  name: "FeatureExtractor/MobilenetV1/Conv2d_0/BatchNorm/gamma/Initializer/ones"
  op: "Const"
  attr {
    key: "_class"
    value {
      list {
        s: "loc:@FeatureExtractor/MobilenetV1/Conv2d_0/BatchNorm/gamma"
      }
    }
  }
  attr {
    key: "dtype"
    value {
      type: DT_FLOAT
    }
  }
  attr {
    key: "value"
    value {
      tensor {
        dtype: DT_FLOAT
        tensor_shape {
          dim {
            size: 32
          }
        }
        float_val: 1.0
      }
    }
  }
}
node {
  name: "FeatureExtractor/MobilenetV1/Conv2d_0/BatchNorm/gamma"
  op: "VariableV2"
  attr {
    key: "_class"
    value {
      list {
        s: "loc:@FeatureExtractor/MobilenetV1/Conv2d_0/BatchNorm/gamma"
      }
    }
  }
  attr {
    key: "container"
    value {
      s: ""
    }
  }
  attr {
    key: "dtype"
    value {
      type: DT_FLOAT
    }
  }
  attr {
    key: "shape"
    value {
      shape {
        dim {
          size: 32
        }
      }
    }
  }
  attr {
    key: "shared_name"
    value {
      s: ""
    }
  }
}
node {
  name: "FeatureExtractor/MobilenetV1/Conv2d_0/BatchNorm/gamma/Assign"
  op: "Assign"
  input: "FeatureExtractor/MobilenetV1/Conv2d_0/BatchNorm/gamma"
  input: "FeatureExtractor/MobilenetV1/Conv2d_0/BatchNorm/gamma/Initializer/ones"
  attr {
    key: "T"
    value {
      type: DT_FLOAT
    }
  }
  attr {
    key: "_class"
    value {
      list {
        s: "loc:@FeatureExtractor/MobilenetV1/Conv2d_0/BatchNorm/gamma"
      }
    }
  }
  attr {
    key: "use_locking"
    value {
      b: true
    }
  }
  attr {
    key: "validate_shape"
    value {
      b: true
    }
  }
}
node {
  name: "FeatureExtractor/MobilenetV1/Conv2d_0/BatchNorm/gamma/read"
  op: "Identity"
  input: "FeatureExtractor/MobilenetV1/Conv2d_0/BatchNorm/gamma"
  attr {
    key: "T"
    value {
      type: DT_FLOAT
    }
  }
  attr {
    key: "_class"
    value {
      list {
        s: "loc:@FeatureExtractor/MobilenetV1/Conv2d_0/BatchNorm/gamma"
      }
    }
  }
}
node {
  name: "FeatureExtractor/MobilenetV1/Conv2d_0/BatchNorm/beta/Initializer/zeros"
  op: "Const"
  attr {
    key: "_class"
    value {
      list {
        s: "loc:@FeatureExtractor/MobilenetV1/Conv2d_0/BatchNorm/beta"
      }
    }
  }
  attr {
    key: "dtype"
    value {
      type: DT_FLOAT
    }
  }
  attr {
    key: "value"
    value {
      tensor {
        dtype: DT_FLOAT
        tensor_shape {
          dim {
            size: 32
          }
        }
        float_val: 0.0
      }
    }
  }
}
node {
  name: "FeatureExtractor/MobilenetV1/Conv2d_0/BatchNorm/beta"
  op: "VariableV2"
  attr {
    key: "_class"
    value {
      list {
        s: "loc:@FeatureExtractor/MobilenetV1/Conv2d_0/BatchNorm/beta"
      }
    }
  }
  attr {
    key: "container"
    value {
      s: ""
    }
  }
  attr {
    key: "dtype"
    value {
      type: DT_FLOAT
    }
  }
  attr {
    key: "shape"
    value {
      shape {
        dim {
          size: 32
        }
      }
    }
  }
  attr {
    key: "shared_name"
    value {
      s: ""
    }
  }
}
node {
  name: "FeatureExtractor/MobilenetV1/Conv2d_0/BatchNorm/beta/Assign"
  op: "Assign"
  input: "FeatureExtractor/MobilenetV1/Conv2d_0/BatchNorm/beta"
  input: "FeatureExtractor/MobilenetV1/Conv2d_0/BatchNorm/beta/Initializer/zeros"
  attr {
    key: "T"
    value {
      type: DT_FLOAT
    }
  }
  attr {
    key: "_class"
    value {
      list {
        s: "loc:@FeatureExtractor/MobilenetV1/Conv2d_0/BatchNorm/beta"
      }
    }
  }
  attr {
    key: "use_locking"
    value {
      b: true
    }
  }
  attr {
    key: "validate_shape"
    value {
      b: true
    }
  }
}
node {
  name: "FeatureExtractor/MobilenetV1/Conv2d_0/BatchNorm/beta/read"
  op: "Identity"
  input: "FeatureExtractor/MobilenetV1/Conv2d_0/BatchNorm/beta"
  attr {
    key: "T"
    value {
      type: DT_FLOAT
    }
  }
  attr {
    key: "_class"
    value {
      list {
        s: "loc:@FeatureExtractor/MobilenetV1/Conv2d_0/BatchNorm/beta"
      }
    }
  }
}
node {
  name: "FeatureExtractor/MobilenetV1/Conv2d_0/BatchNorm/moving_mean/Initializer/zeros"
  op: "Const"
  attr {
    key: "_class"
    value {
      list {
        s: "loc:@FeatureExtractor/MobilenetV1/Conv2d_0/BatchNorm/moving_mean"
      }
    }
  }
  attr {
    key: "dtype"
    value {
      type: DT_FLOAT
    }
  }
  attr {
    key: "value"
    value {
      tensor {
        dtype: DT_FLOAT
        tensor_shape {
          dim {
            size: 32
          }
        }
        float_val: 0.0
      }
    }
  }
}
node {
  name: "FeatureExtractor/MobilenetV1/Conv2d_0/BatchNorm/moving_mean"
  op: "VariableV2"
  attr {
    key: "_class"
    value {
      list {
        s: "loc:@FeatureExtractor/MobilenetV1/Conv2d_0/BatchNorm/moving_mean"
      }
    }
  }
  attr {
    key: "container"
    value {
      s: ""
    }
  }
  attr {
    key: "dtype"
    value {
      type: DT_FLOAT
    }
  }
  attr {
    key: "shape"
    value {
      shape {
        dim {
          size: 32
        }
      }
    }
  }
  attr {
    key: "shared_name"
    value {
      s: ""
    }
  }
}
node {
  name: "FeatureExtractor/MobilenetV1/Conv2d_0/BatchNorm/moving_mean/Assign"
  op: "Assign"
  input: "FeatureExtractor/MobilenetV1/Conv2d_0/BatchNorm/moving_mean"
  input: "FeatureExtractor/MobilenetV1/Conv2d_0/BatchNorm/moving_mean/Initializer/zeros"
  attr {
    key: "T"
    value {
      type: DT_FLOAT
    }
  }
  attr {
    key: "_class"
    value {
      list {
        s: "loc:@FeatureExtractor/MobilenetV1/Conv2d_0/BatchNorm/moving_mean"
      }
    }
  }
  attr {
    key: "use_locking"
    value {
      b: true
    }
  }
  attr {
    key: "validate_shape"
    value {
      b: true
    }
  }
}
node {
  name: "FeatureExtractor/MobilenetV1/Conv2d_0/BatchNorm/moving_mean/read"
  op: "Identity"
  input: "FeatureExtractor/MobilenetV1/Conv2d_0/BatchNorm/moving_mean"
  attr {
    key: "T"
    value {
      type: DT_FLOAT
    }
  }
  attr {
    key: "_class"
    value {
      list {
        s: "loc:@FeatureExtractor/MobilenetV1/Conv2d_0/BatchNorm/moving_mean"
      }
    }
  }
}
node {
  name: "FeatureExtractor/MobilenetV1/Conv2d_0/BatchNorm/moving_variance/Initializer/ones"
  op: "Const"
  attr {
    key: "_class"
    value {
      list {
        s: "loc:@FeatureExtractor/MobilenetV1/Conv2d_0/BatchNorm/moving_variance"
      }
    }
  }
  attr {
    key: "dtype"
    value {
      type: DT_FLOAT
    }
  }
  attr {
    key: "value"
    value {
      tensor {
        dtype: DT_FLOAT
        tensor_shape {
          dim {
            size: 32
          }
        }
        float_val: 1.0
      }
    }
  }
}
node {
  name: "FeatureExtractor/MobilenetV1/Conv2d_0/BatchNorm/moving_variance"
  op: "VariableV2"
  attr {
    key: "_class"
    value {
      list {
        s: "loc:@FeatureExtractor/MobilenetV1/Conv2d_0/BatchNorm/moving_variance"
      }
    }
  }
  attr {
    key: "container"
    value {
      s: ""
    }
  }
  attr {
    key: "dtype"
    value {
      type: DT_FLOAT
    }
  }
  attr {
    key: "shape"
    value {
      shape {
        dim {
          size: 32
        }
      }
    }
  }
  attr {
    key: "shared_name"
    value {
      s: ""
    }
  }
}
node {
  name: "FeatureExtractor/MobilenetV1/Conv2d_0/BatchNorm/moving_variance/Assign"
  op: "Assign"
  input: "FeatureExtractor/MobilenetV1/Conv2d_0/BatchNorm/moving_variance"
  input: "FeatureExtractor/MobilenetV1/Conv2d_0/BatchNorm/moving_variance/Initializer/ones"
  attr {
    key: "T"
    value {
      type: DT_FLOAT
    }
  }
  attr {
    key: "_class"
    value {
      list {
        s: "loc:@FeatureExtractor/MobilenetV1/Conv2d_0/BatchNorm/moving_variance"
      }
    }
  }
  attr {
    key: "use_locking"
    value {
      b: true
    }
  }
  attr {
    key: "validate_shape"
    value {
      b: true
    }
  }
}
node {
  name: "FeatureExtractor/MobilenetV1/Conv2d_0/BatchNorm/moving_variance/read"
  op: "Identity"
  input: "FeatureExtractor/MobilenetV1/Conv2d_0/BatchNorm/moving_variance"
  attr {
    key: "T"
    value {
      type: DT_FLOAT
    }
  }
  attr {
    key: "_class"
    value {
      list {
        s: "loc:@FeatureExtractor/MobilenetV1/Conv2d_0/BatchNorm/moving_variance"
      }
    }
  }
}
node {
  name: "FeatureExtractor/MobilenetV1/MobilenetV1/Conv2d_0/BatchNorm/FusedBatchNorm"
  op: "FusedBatchNorm"
  input: "FeatureExtractor/MobilenetV1/MobilenetV1/Conv2d_0/Conv2D"
  input: "FeatureExtractor/MobilenetV1/Conv2d_0/BatchNorm/gamma/read"
  input: "FeatureExtractor/MobilenetV1/Conv2d_0/BatchNorm/beta/read"
  input: "FeatureExtractor/MobilenetV1/Conv2d_0/BatchNorm/moving_mean/read"
  input: "FeatureExtractor/MobilenetV1/Conv2d_0/BatchNorm/moving_variance/read"
  attr {
    key: "T"
    value {
      type: DT_FLOAT
    }
  }
  attr {
    key: "data_format"
    value {
      s: "NHWC"
    }
  }
  attr {
    key: "epsilon"
    value {
      f: 0.0010000000474974513
    }
  }
  attr {
    key: "is_training"
    value {
      b: false
    }
  }
}
node {
  name: "FeatureExtractor/MobilenetV1/MobilenetV1/Conv2d_0/BatchNorm/Const"
  op: "Const"
  attr {
    key: "dtype"
    value {
      type: DT_FLOAT
    }
  }
  attr {
    key: "value"
    value {
      tensor {
        dtype: DT_FLOAT
        tensor_shape {
        }
        float_val: 0.9997000098228455
      }
    }
  }
}
node {
  name: "FeatureExtractor/MobilenetV1/MobilenetV1/Conv2d_0/Relu6"
  op: "Relu6"
  input: "FeatureExtractor/MobilenetV1/MobilenetV1/Conv2d_0/BatchNorm/FusedBatchNorm"
  attr {
    key: "T"
    value {
      type: DT_FLOAT
    }
  }
}
node {
  name: "FeatureExtractor/MobilenetV1/Conv2d_1_depthwise/depthwise_weights/Initializer/truncated_normal/shape"
  op: "Const"
  attr {
    key: "_class"
    value {
      list {
        s: "loc:@FeatureExtractor/MobilenetV1/Conv2d_1_depthwise/depthwise_weights"
      }
    }
  }
  attr {
    key: "dtype"
    value {
      type: DT_INT32
    }
  }
  attr {
    key: "value"
    value {
      tensor {
        dtype: DT_INT32
        tensor_shape {
          dim {
            size: 4
          }
        }
        tensor_content: "\003\000\000\000\003\000\000\000 \000\000\000\001\000\000\000"
      }
    }
  }
}
node {
  name: "FeatureExtractor/MobilenetV1/Conv2d_1_depthwise/depthwise_weights/Initializer/truncated_normal/mean"
  op: "Const"
  attr {
    key: "_class"
    value {
      list {
        s: "loc:@FeatureExtractor/MobilenetV1/Conv2d_1_depthwise/depthwise_weights"
      }
    }
  }
  attr {
    key: "dtype"
    value {
      type: DT_FLOAT
    }
  }
  attr {
    key: "value"
    value {
      tensor {
        dtype: DT_FLOAT
        tensor_shape {
        }
        float_val: 0.0
      }
    }
  }
}
node {
  name: "FeatureExtractor/MobilenetV1/Conv2d_1_depthwise/depthwise_weights/Initializer/truncated_normal/stddev"
  op: "Const"
  attr {
    key: "_class"
    value {
      list {
        s: "loc:@FeatureExtractor/MobilenetV1/Conv2d_1_depthwise/depthwise_weights"
      }
    }
  }
  attr {
    key: "dtype"
    value {
      type: DT_FLOAT
    }
  }
  attr {
    key: "value"
    value {
      tensor {
        dtype: DT_FLOAT
        tensor_shape {
        }
        float_val: 0.09000000357627869
      }
    }
  }
}
node {
  name: "FeatureExtractor/MobilenetV1/Conv2d_1_depthwise/depthwise_weights/Initializer/truncated_normal/TruncatedNormal"
  op: "TruncatedNormal"
  input: "FeatureExtractor/MobilenetV1/Conv2d_1_depthwise/depthwise_weights/Initializer/truncated_normal/shape"
  attr {
    key: "T"
    value {
      type: DT_INT32
    }
  }
  attr {
    key: "_class"
    value {
      list {
        s: "loc:@FeatureExtractor/MobilenetV1/Conv2d_1_depthwise/depthwise_weights"
      }
    }
  }
  attr {
    key: "dtype"
    value {
      type: DT_FLOAT
    }
  }
  attr {
    key: "seed"
    value {
      i: 0
    }
  }
  attr {
    key: "seed2"
    value {
      i: 0
    }
  }
}
node {
  name: "FeatureExtractor/MobilenetV1/Conv2d_1_depthwise/depthwise_weights/Initializer/truncated_normal/mul"
  op: "Mul"
  input: "FeatureExtractor/MobilenetV1/Conv2d_1_depthwise/depthwise_weights/Initializer/truncated_normal/TruncatedNormal"
  input: "FeatureExtractor/MobilenetV1/Conv2d_1_depthwise/depthwise_weights/Initializer/truncated_normal/stddev"
  attr {
    key: "T"
    value {
      type: DT_FLOAT
    }
  }
  attr {
    key: "_class"
    value {
      list {
        s: "loc:@FeatureExtractor/MobilenetV1/Conv2d_1_depthwise/depthwise_weights"
      }
    }
  }
}
node {
  name: "FeatureExtractor/MobilenetV1/Conv2d_1_depthwise/depthwise_weights/Initializer/truncated_normal"
  op: "Add"
  input: "FeatureExtractor/MobilenetV1/Conv2d_1_depthwise/depthwise_weights/Initializer/truncated_normal/mul"
  input: "FeatureExtractor/MobilenetV1/Conv2d_1_depthwise/depthwise_weights/Initializer/truncated_normal/mean"
  attr {
    key: "T"
    value {
      type: DT_FLOAT
    }
  }
  attr {
    key: "_class"
    value {
      list {
        s: "loc:@FeatureExtractor/MobilenetV1/Conv2d_1_depthwise/depthwise_weights"
      }
    }
  }
}
node {
  name: "FeatureExtractor/MobilenetV1/Conv2d_1_depthwise/depthwise_weights"
  op: "VariableV2"
  attr {
    key: "_class"
    value {
      list {
        s: "loc:@FeatureExtractor/MobilenetV1/Conv2d_1_depthwise/depthwise_weights"
      }
    }
  }
  attr {
    key: "container"
    value {
      s: ""
    }
  }
  attr {
    key: "dtype"
    value {
      type: DT_FLOAT
    }
  }
  attr {
    key: "shape"
    value {
      shape {
        dim {
          size: 3
        }
        dim {
          size: 3
        }
        dim {
          size: 32
        }
        dim {
          size: 1
        }
      }
    }
  }
  attr {
    key: "shared_name"
    value {
      s: ""
    }
  }
}
node {
  name: "FeatureExtractor/MobilenetV1/Conv2d_1_depthwise/depthwise_weights/Assign"
  op: "Assign"
  input: "FeatureExtractor/MobilenetV1/Conv2d_1_depthwise/depthwise_weights"
  input: "FeatureExtractor/MobilenetV1/Conv2d_1_depthwise/depthwise_weights/Initializer/truncated_normal"
  attr {
    key: "T"
    value {
      type: DT_FLOAT
    }
  }
  attr {
    key: "_class"
    value {
      list {
        s: "loc:@FeatureExtractor/MobilenetV1/Conv2d_1_depthwise/depthwise_weights"
      }
    }
  }
  attr {
    key: "use_locking"
    value {
      b: true
    }
  }
  attr {
    key: "validate_shape"
    value {
      b: true
    }
  }
}
node {
  name: "FeatureExtractor/MobilenetV1/Conv2d_1_depthwise/depthwise_weights/read"
  op: "Identity"
  input: "FeatureExtractor/MobilenetV1/Conv2d_1_depthwise/depthwise_weights"
  attr {
    key: "T"
    value {
      type: DT_FLOAT
    }
  }
  attr {
    key: "_class"
    value {
      list {
        s: "loc:@FeatureExtractor/MobilenetV1/Conv2d_1_depthwise/depthwise_weights"
      }
    }
  }
}
node {
  name: "FeatureExtractor/MobilenetV1/Conv2d_1_depthwise/depthwise_weights/Regularizer/l2_regularizer/scale"
  op: "Const"
  attr {
    key: "_class"
    value {
      list {
        s: "loc:@FeatureExtractor/MobilenetV1/Conv2d_1_depthwise/depthwise_weights"
      }
    }
  }
  attr {
    key: "dtype"
    value {
      type: DT_FLOAT
    }
  }
  attr {
    key: "value"
    value {
      tensor {
        dtype: DT_FLOAT
        tensor_shape {
        }
        float_val: 3.9999998989515007e-05
      }
    }
  }
}
node {
  name: "FeatureExtractor/MobilenetV1/Conv2d_1_depthwise/depthwise_weights/Regularizer/l2_regularizer/L2Loss"
  op: "L2Loss"
  input: "FeatureExtractor/MobilenetV1/Conv2d_1_depthwise/depthwise_weights/read"
  attr {
    key: "T"
    value {
      type: DT_FLOAT
    }
  }
  attr {
    key: "_class"
    value {
      list {
        s: "loc:@FeatureExtractor/MobilenetV1/Conv2d_1_depthwise/depthwise_weights"
      }
    }
  }
}
node {
  name: "FeatureExtractor/MobilenetV1/Conv2d_1_depthwise/depthwise_weights/Regularizer/l2_regularizer"
  op: "Mul"
  input: "FeatureExtractor/MobilenetV1/Conv2d_1_depthwise/depthwise_weights/Regularizer/l2_regularizer/scale"
  input: "FeatureExtractor/MobilenetV1/Conv2d_1_depthwise/depthwise_weights/Regularizer/l2_regularizer/L2Loss"
  attr {
    key: "T"
    value {
      type: DT_FLOAT
    }
  }
  attr {
    key: "_class"
    value {
      list {
        s: "loc:@FeatureExtractor/MobilenetV1/Conv2d_1_depthwise/depthwise_weights"
      }
    }
  }
}
node {
  name: "FeatureExtractor/MobilenetV1/MobilenetV1/Conv2d_1_depthwise/depthwise/Shape"
  op: "Const"
  attr {
    key: "dtype"
    value {
      type: DT_INT32
    }
  }
  attr {
    key: "value"
    value {
      tensor {
        dtype: DT_INT32
        tensor_shape {
          dim {
            size: 4
          }
        }
        tensor_content: "\003\000\000\000\003\000\000\000 \000\000\000\001\000\000\000"
      }
    }
  }
}
node {
  name: "FeatureExtractor/MobilenetV1/MobilenetV1/Conv2d_1_depthwise/depthwise/dilation_rate"
  op: "Const"
  attr {
    key: "dtype"
    value {
      type: DT_INT32
    }
  }
  attr {
    key: "value"
    value {
      tensor {
        dtype: DT_INT32
        tensor_shape {
          dim {
            size: 2
          }
        }
        tensor_content: "\001\000\000\000\001\000\000\000"
      }
    }
  }
}
node {
  name: "FeatureExtractor/MobilenetV1/MobilenetV1/Conv2d_1_depthwise/depthwise"
  op: "DepthwiseConv2dNative"
  input: "FeatureExtractor/MobilenetV1/MobilenetV1/Conv2d_0/Relu6"
  input: "FeatureExtractor/MobilenetV1/Conv2d_1_depthwise/depthwise_weights/read"
  attr {
    key: "T"
    value {
      type: DT_FLOAT
    }
  }
  attr {
    key: "data_format"
    value {
      s: "NHWC"
    }
  }
  attr {
    key: "dilations"
    value {
      list {
        i: 1
        i: 1
        i: 1
        i: 1
      }
    }
  }
  attr {
    key: "padding"
    value {
      s: "SAME"
    }
  }
  attr {
    key: "strides"
    value {
      list {
        i: 1
        i: 1
        i: 1
        i: 1
      }
    }
  }
}
node {
  name: "FeatureExtractor/MobilenetV1/Conv2d_1_depthwise/BatchNorm/gamma/Initializer/ones"
  op: "Const"
  attr {
    key: "_class"
    value {
      list {
        s: "loc:@FeatureExtractor/MobilenetV1/Conv2d_1_depthwise/BatchNorm/gamma"
      }
    }
  }
  attr {
    key: "dtype"
    value {
      type: DT_FLOAT
    }
  }
  attr {
    key: "value"
    value {
      tensor {
        dtype: DT_FLOAT
        tensor_shape {
          dim {
            size: 32
          }
        }
        float_val: 1.0
      }
    }
  }
}
node {
  name: "FeatureExtractor/MobilenetV1/Conv2d_1_depthwise/BatchNorm/gamma"
  op: "VariableV2"
  attr {
    key: "_class"
    value {
      list {
        s: "loc:@FeatureExtractor/MobilenetV1/Conv2d_1_depthwise/BatchNorm/gamma"
      }
    }
  }
  attr {
    key: "container"
    value {
      s: ""
    }
  }
  attr {
    key: "dtype"
    value {
      type: DT_FLOAT
    }
  }
  attr {
    key: "shape"
    value {
      shape {
        dim {
          size: 32
        }
      }
    }
  }
  attr {
    key: "shared_name"
    value {
      s: ""
    }
  }
}
node {
  name: "FeatureExtractor/MobilenetV1/Conv2d_1_depthwise/BatchNorm/gamma/Assign"
  op: "Assign"
  input: "FeatureExtractor/MobilenetV1/Conv2d_1_depthwise/BatchNorm/gamma"
  input: "FeatureExtractor/MobilenetV1/Conv2d_1_depthwise/BatchNorm/gamma/Initializer/ones"
  attr {
    key: "T"
    value {
      type: DT_FLOAT
    }
  }
  attr {
    key: "_class"
    value {
      list {
        s: "loc:@FeatureExtractor/MobilenetV1/Conv2d_1_depthwise/BatchNorm/gamma"
      }
    }
  }
  attr {
    key: "use_locking"
    value {
      b: true
    }
  }
  attr {
    key: "validate_shape"
    value {
      b: true
    }
  }
}
node {
  name: "FeatureExtractor/MobilenetV1/Conv2d_1_depthwise/BatchNorm/gamma/read"
  op: "Identity"
  input: "FeatureExtractor/MobilenetV1/Conv2d_1_depthwise/BatchNorm/gamma"
  attr {
    key: "T"
    value {
      type: DT_FLOAT
    }
  }
  attr {
    key: "_class"
    value {
      list {
        s: "loc:@FeatureExtractor/MobilenetV1/Conv2d_1_depthwise/BatchNorm/gamma"
      }
    }
  }
}
node {
  name: "FeatureExtractor/MobilenetV1/Conv2d_1_depthwise/BatchNorm/beta/Initializer/zeros"
  op: "Const"
  attr {
    key: "_class"
    value {
      list {
        s: "loc:@FeatureExtractor/MobilenetV1/Conv2d_1_depthwise/BatchNorm/beta"
      }
    }
  }
  attr {
    key: "dtype"
    value {
      type: DT_FLOAT
    }
  }
  attr {
    key: "value"
    value {
      tensor {
        dtype: DT_FLOAT
        tensor_shape {
          dim {
            size: 32
          }
        }
        float_val: 0.0
      }
    }
  }
}
node {
  name: "FeatureExtractor/MobilenetV1/Conv2d_1_depthwise/BatchNorm/beta"
  op: "VariableV2"
  attr {
    key: "_class"
    value {
      list {
        s: "loc:@FeatureExtractor/MobilenetV1/Conv2d_1_depthwise/BatchNorm/beta"
      }
    }
  }
  attr {
    key: "container"
    value {
      s: ""
    }
  }
  attr {
    key: "dtype"
    value {
      type: DT_FLOAT
    }
  }
  attr {
    key: "shape"
    value {
      shape {
        dim {
          size: 32
        }
      }
    }
  }
  attr {
    key: "shared_name"
    value {
      s: ""
    }
  }
}
node {
  name: "FeatureExtractor/MobilenetV1/Conv2d_1_depthwise/BatchNorm/beta/Assign"
  op: "Assign"
  input: "FeatureExtractor/MobilenetV1/Conv2d_1_depthwise/BatchNorm/beta"
  input: "FeatureExtractor/MobilenetV1/Conv2d_1_depthwise/BatchNorm/beta/Initializer/zeros"
  attr {
    key: "T"
    value {
      type: DT_FLOAT
    }
  }
  attr {
    key: "_class"
    value {
      list {
        s: "loc:@FeatureExtractor/MobilenetV1/Conv2d_1_depthwise/BatchNorm/beta"
      }
    }
  }
  attr {
    key: "use_locking"
    value {
      b: true
    }
  }
  attr {
    key: "validate_shape"
    value {
      b: true
    }
  }
}
node {
  name: "FeatureExtractor/MobilenetV1/Conv2d_1_depthwise/BatchNorm/beta/read"
  op: "Identity"
  input: "FeatureExtractor/MobilenetV1/Conv2d_1_depthwise/BatchNorm/beta"
  attr {
    key: "T"
    value {
      type: DT_FLOAT
    }
  }
  attr {
    key: "_class"
    value {
      list {
        s: "loc:@FeatureExtractor/MobilenetV1/Conv2d_1_depthwise/BatchNorm/beta"
      }
    }
  }
}
node {
  name: "FeatureExtractor/MobilenetV1/Conv2d_1_depthwise/BatchNorm/moving_mean/Initializer/zeros"
  op: "Const"
  attr {
    key: "_class"
    value {
      list {
        s: "loc:@FeatureExtractor/MobilenetV1/Conv2d_1_depthwise/BatchNorm/moving_mean"
      }
    }
  }
  attr {
    key: "dtype"
    value {
      type: DT_FLOAT
    }
  }
  attr {
    key: "value"
    value {
      tensor {
        dtype: DT_FLOAT
        tensor_shape {
          dim {
            size: 32
          }
        }
        float_val: 0.0
      }
    }
  }
}
node {
  name: "FeatureExtractor/MobilenetV1/Conv2d_1_depthwise/BatchNorm/moving_mean"
  op: "VariableV2"
  attr {
    key: "_class"
    value {
      list {
        s: "loc:@FeatureExtractor/MobilenetV1/Conv2d_1_depthwise/BatchNorm/moving_mean"
      }
    }
  }
  attr {
    key: "container"
    value {
      s: ""
    }
  }
  attr {
    key: "dtype"
    value {
      type: DT_FLOAT
    }
  }
  attr {
    key: "shape"
    value {
      shape {
        dim {
          size: 32
        }
      }
    }
  }
  attr {
    key: "shared_name"
    value {
      s: ""
    }
  }
}
node {
  name: "FeatureExtractor/MobilenetV1/Conv2d_1_depthwise/BatchNorm/moving_mean/Assign"
  op: "Assign"
  input: "FeatureExtractor/MobilenetV1/Conv2d_1_depthwise/BatchNorm/moving_mean"
  input: "FeatureExtractor/MobilenetV1/Conv2d_1_depthwise/BatchNorm/moving_mean/Initializer/zeros"
  attr {
    key: "T"
    value {
      type: DT_FLOAT
    }
  }
  attr {
    key: "_class"
    value {
      list {
        s: "loc:@FeatureExtractor/MobilenetV1/Conv2d_1_depthwise/BatchNorm/moving_mean"
      }
    }
  }
  attr {
    key: "use_locking"
    value {
      b: true
    }
  }
  attr {
    key: "validate_shape"
    value {
      b: true
    }
  }
}
node {
  name: "FeatureExtractor/MobilenetV1/Conv2d_1_depthwise/BatchNorm/moving_mean/read"
  op: "Identity"
  input: "FeatureExtractor/MobilenetV1/Conv2d_1_depthwise/BatchNorm/moving_mean"
  attr {
    key: "T"
    value {
      type: DT_FLOAT
    }
  }
  attr {
    key: "_class"
    value {
      list {
        s: "loc:@FeatureExtractor/MobilenetV1/Conv2d_1_depthwise/BatchNorm/moving_mean"
      }
    }
  }
}
node {
  name: "FeatureExtractor/MobilenetV1/Conv2d_1_depthwise/BatchNorm/moving_variance/Initializer/ones"
  op: "Const"
  attr {
    key: "_class"
    value {
      list {
        s: "loc:@FeatureExtractor/MobilenetV1/Conv2d_1_depthwise/BatchNorm/moving_variance"
      }
    }
  }
  attr {
    key: "dtype"
    value {
      type: DT_FLOAT
    }
  }
  attr {
    key: "value"
    value {
      tensor {
        dtype: DT_FLOAT
        tensor_shape {
          dim {
            size: 32
          }
        }
        float_val: 1.0
      }
    }
  }
}
node {
  name: "FeatureExtractor/MobilenetV1/Conv2d_1_depthwise/BatchNorm/moving_variance"
  op: "VariableV2"
  attr {
    key: "_class"
    value {
      list {
        s: "loc:@FeatureExtractor/MobilenetV1/Conv2d_1_depthwise/BatchNorm/moving_variance"
      }
    }
  }
  attr {
    key: "container"
    value {
      s: ""
    }
  }
  attr {
    key: "dtype"
    value {
      type: DT_FLOAT
    }
  }
  attr {
    key: "shape"
    value {
      shape {
        dim {
          size: 32
        }
      }
    }
  }
  attr {
    key: "shared_name"
    value {
      s: ""
    }
  }
}
node {
  name: "FeatureExtractor/MobilenetV1/Conv2d_1_depthwise/BatchNorm/moving_variance/Assign"
  op: "Assign"
  input: "FeatureExtractor/MobilenetV1/Conv2d_1_depthwise/BatchNorm/moving_variance"
  input: "FeatureExtractor/MobilenetV1/Conv2d_1_depthwise/BatchNorm/moving_variance/Initializer/ones"
  attr {
    key: "T"
    value {
      type: DT_FLOAT
    }
  }
  attr {
    key: "_class"
    value {
      list {
        s: "loc:@FeatureExtractor/MobilenetV1/Conv2d_1_depthwise/BatchNorm/moving_variance"
      }
    }
  }
  attr {
    key: "use_locking"
    value {
      b: true
    }
  }
  attr {
    key: "validate_shape"
    value {
      b: true
    }
  }
}
node {
  name: "FeatureExtractor/MobilenetV1/Conv2d_1_depthwise/BatchNorm/moving_variance/read"
  op: "Identity"
  input: "FeatureExtractor/MobilenetV1/Conv2d_1_depthwise/BatchNorm/moving_variance"
  attr {
    key: "T"
    value {
      type: DT_FLOAT
    }
  }
  attr {
    key: "_class"
    value {
      list {
        s: "loc:@FeatureExtractor/MobilenetV1/Conv2d_1_depthwise/BatchNorm/moving_variance"
      }
    }
  }
}
node {
  name: "FeatureExtractor/MobilenetV1/MobilenetV1/Conv2d_1_depthwise/BatchNorm/FusedBatchNorm"
  op: "FusedBatchNorm"
  input: "FeatureExtractor/MobilenetV1/MobilenetV1/Conv2d_1_depthwise/depthwise"
  input: "FeatureExtractor/MobilenetV1/Conv2d_1_depthwise/BatchNorm/gamma/read"
  input: "FeatureExtractor/MobilenetV1/Conv2d_1_depthwise/BatchNorm/beta/read"
  input: "FeatureExtractor/MobilenetV1/Conv2d_1_depthwise/BatchNorm/moving_mean/read"
  input: "FeatureExtractor/MobilenetV1/Conv2d_1_depthwise/BatchNorm/moving_variance/read"
  attr {
    key: "T"
    value {
      type: DT_FLOAT
    }
  }
  attr {
    key: "data_format"
    value {
      s: "NHWC"
    }
  }
  attr {
    key: "epsilon"
    value {
      f: 0.0010000000474974513
    }
  }
  attr {
    key: "is_training"
    value {
      b: false
    }
  }
}
node {
  name: "FeatureExtractor/MobilenetV1/MobilenetV1/Conv2d_1_depthwise/BatchNorm/Const"
  op: "Const"
  attr {
    key: "dtype"
    value {
      type: DT_FLOAT
    }
  }
  attr {
    key: "value"
    value {
      tensor {
        dtype: DT_FLOAT
        tensor_shape {
        }
        float_val: 0.9997000098228455
      }
    }
  }
}
node {
  name: "FeatureExtractor/MobilenetV1/MobilenetV1/Conv2d_1_depthwise/Relu6"
  op: "Relu6"
  input: "FeatureExtractor/MobilenetV1/MobilenetV1/Conv2d_1_depthwise/BatchNorm/FusedBatchNorm"
  attr {
    key: "T"
    value {
      type: DT_FLOAT
    }
  }
}
node {
  name: "FeatureExtractor/MobilenetV1/Conv2d_1_pointwise/weights/Initializer/truncated_normal/shape"
  op: "Const"
  attr {
    key: "_class"
    value {
      list {
        s: "loc:@FeatureExtractor/MobilenetV1/Conv2d_1_pointwise/weights"
      }
    }
  }
  attr {
    key: "dtype"
    value {
      type: DT_INT32
    }
  }
  attr {
    key: "value"
    value {
      tensor {
        dtype: DT_INT32
        tensor_shape {
          dim {
            size: 4
          }
        }
        tensor_content: "\001\000\000\000\001\000\000\000 \000\000\000@\000\000\000"
      }
    }
  }
}
node {
  name: "FeatureExtractor/MobilenetV1/Conv2d_1_pointwise/weights/Initializer/truncated_normal/mean"
  op: "Const"
  attr {
    key: "_class"
    value {
      list {
        s: "loc:@FeatureExtractor/MobilenetV1/Conv2d_1_pointwise/weights"
      }
    }
  }
  attr {
    key: "dtype"
    value {
      type: DT_FLOAT
    }
  }
  attr {
    key: "value"
    value {
      tensor {
        dtype: DT_FLOAT
        tensor_shape {
        }
        float_val: 0.0
      }
    }
  }
}
node {
  name: "FeatureExtractor/MobilenetV1/Conv2d_1_pointwise/weights/Initializer/truncated_normal/stddev"
  op: "Const"
  attr {
    key: "_class"
    value {
      list {
        s: "loc:@FeatureExtractor/MobilenetV1/Conv2d_1_pointwise/weights"
      }
    }
  }
  attr {
    key: "dtype"
    value {
      type: DT_FLOAT
    }
  }
  attr {
    key: "value"
    value {
      tensor {
        dtype: DT_FLOAT
        tensor_shape {
        }
        float_val: 0.09000000357627869
      }
    }
  }
}
node {
  name: "FeatureExtractor/MobilenetV1/Conv2d_1_pointwise/weights/Initializer/truncated_normal/TruncatedNormal"
  op: "TruncatedNormal"
  input: "FeatureExtractor/MobilenetV1/Conv2d_1_pointwise/weights/Initializer/truncated_normal/shape"
  attr {
    key: "T"
    value {
      type: DT_INT32
    }
  }
  attr {
    key: "_class"
    value {
      list {
        s: "loc:@FeatureExtractor/MobilenetV1/Conv2d_1_pointwise/weights"
      }
    }
  }
  attr {
    key: "dtype"
    value {
      type: DT_FLOAT
    }
  }
  attr {
    key: "seed"
    value {
      i: 0
    }
  }
  attr {
    key: "seed2"
    value {
      i: 0
    }
  }
}
node {
  name: "FeatureExtractor/MobilenetV1/Conv2d_1_pointwise/weights/Initializer/truncated_normal/mul"
  op: "Mul"
  input: "FeatureExtractor/MobilenetV1/Conv2d_1_pointwise/weights/Initializer/truncated_normal/TruncatedNormal"
  input: "FeatureExtractor/MobilenetV1/Conv2d_1_pointwise/weights/Initializer/truncated_normal/stddev"
  attr {
    key: "T"
    value {
      type: DT_FLOAT
    }
  }
  attr {
    key: "_class"
    value {
      list {
        s: "loc:@FeatureExtractor/MobilenetV1/Conv2d_1_pointwise/weights"
      }
    }
  }
}
node {
  name: "FeatureExtractor/MobilenetV1/Conv2d_1_pointwise/weights/Initializer/truncated_normal"
  op: "Add"
  input: "FeatureExtractor/MobilenetV1/Conv2d_1_pointwise/weights/Initializer/truncated_normal/mul"
  input: "FeatureExtractor/MobilenetV1/Conv2d_1_pointwise/weights/Initializer/truncated_normal/mean"
  attr {
    key: "T"
    value {
      type: DT_FLOAT
    }
  }
  attr {
    key: "_class"
    value {
      list {
        s: "loc:@FeatureExtractor/MobilenetV1/Conv2d_1_pointwise/weights"
      }
    }
  }
}
node {
  name: "FeatureExtractor/MobilenetV1/Conv2d_1_pointwise/weights"
  op: "VariableV2"
  attr {
    key: "_class"
    value {
      list {
        s: "loc:@FeatureExtractor/MobilenetV1/Conv2d_1_pointwise/weights"
      }
    }
  }
  attr {
    key: "container"
    value {
      s: ""
    }
  }
  attr {
    key: "dtype"
    value {
      type: DT_FLOAT
    }
  }
  attr {
    key: "shape"
    value {
      shape {
        dim {
          size: 1
        }
        dim {
          size: 1
        }
        dim {
          size: 32
        }
        dim {
          size: 64
        }
      }
    }
  }
  attr {
    key: "shared_name"
    value {
      s: ""
    }
  }
}
node {
  name: "FeatureExtractor/MobilenetV1/Conv2d_1_pointwise/weights/Assign"
  op: "Assign"
  input: "FeatureExtractor/MobilenetV1/Conv2d_1_pointwise/weights"
  input: "FeatureExtractor/MobilenetV1/Conv2d_1_pointwise/weights/Initializer/truncated_normal"
  attr {
    key: "T"
    value {
      type: DT_FLOAT
    }
  }
  attr {
    key: "_class"
    value {
      list {
        s: "loc:@FeatureExtractor/MobilenetV1/Conv2d_1_pointwise/weights"
      }
    }
  }
  attr {
    key: "use_locking"
    value {
      b: true
    }
  }
  attr {
    key: "validate_shape"
    value {
      b: true
    }
  }
}
node {
  name: "FeatureExtractor/MobilenetV1/Conv2d_1_pointwise/weights/read"
  op: "Identity"
  input: "FeatureExtractor/MobilenetV1/Conv2d_1_pointwise/weights"
  attr {
    key: "T"
    value {
      type: DT_FLOAT
    }
  }
  attr {
    key: "_class"
    value {
      list {
        s: "loc:@FeatureExtractor/MobilenetV1/Conv2d_1_pointwise/weights"
      }
    }
  }
}
node {
  name: "FeatureExtractor/MobilenetV1/MobilenetV1/Conv2d_1_pointwise/kernel/Regularizer/l2_regularizer/scale"
  op: "Const"
  attr {
    key: "dtype"
    value {
      type: DT_FLOAT
    }
  }
  attr {
    key: "value"
    value {
      tensor {
        dtype: DT_FLOAT
        tensor_shape {
        }
        float_val: 3.9999998989515007e-05
      }
    }
  }
}
node {
  name: "FeatureExtractor/MobilenetV1/MobilenetV1/Conv2d_1_pointwise/kernel/Regularizer/l2_regularizer/L2Loss"
  op: "L2Loss"
  input: "FeatureExtractor/MobilenetV1/Conv2d_1_pointwise/weights/read"
  attr {
    key: "T"
    value {
      type: DT_FLOAT
    }
  }
}
node {
  name: "FeatureExtractor/MobilenetV1/MobilenetV1/Conv2d_1_pointwise/kernel/Regularizer/l2_regularizer"
  op: "Mul"
  input: "FeatureExtractor/MobilenetV1/MobilenetV1/Conv2d_1_pointwise/kernel/Regularizer/l2_regularizer/scale"
  input: "FeatureExtractor/MobilenetV1/MobilenetV1/Conv2d_1_pointwise/kernel/Regularizer/l2_regularizer/L2Loss"
  attr {
    key: "T"
    value {
      type: DT_FLOAT
    }
  }
}
node {
  name: "FeatureExtractor/MobilenetV1/MobilenetV1/Conv2d_1_pointwise/dilation_rate"
  op: "Const"
  attr {
    key: "dtype"
    value {
      type: DT_INT32
    }
  }
  attr {
    key: "value"
    value {
      tensor {
        dtype: DT_INT32
        tensor_shape {
          dim {
            size: 2
          }
        }
        tensor_content: "\001\000\000\000\001\000\000\000"
      }
    }
  }
}
node {
  name: "FeatureExtractor/MobilenetV1/MobilenetV1/Conv2d_1_pointwise/Conv2D"
  op: "Conv2D"
  input: "FeatureExtractor/MobilenetV1/MobilenetV1/Conv2d_1_depthwise/Relu6"
  input: "FeatureExtractor/MobilenetV1/Conv2d_1_pointwise/weights/read"
  attr {
    key: "T"
    value {
      type: DT_FLOAT
    }
  }
  attr {
    key: "data_format"
    value {
      s: "NHWC"
    }
  }
  attr {
    key: "dilations"
    value {
      list {
        i: 1
        i: 1
        i: 1
        i: 1
      }
    }
  }
  attr {
    key: "padding"
    value {
      s: "SAME"
    }
  }
  attr {
    key: "strides"
    value {
      list {
        i: 1
        i: 1
        i: 1
        i: 1
      }
    }
  }
  attr {
    key: "use_cudnn_on_gpu"
    value {
      b: true
    }
  }
}
node {
  name: "FeatureExtractor/MobilenetV1/Conv2d_1_pointwise/BatchNorm/gamma/Initializer/ones"
  op: "Const"
  attr {
    key: "_class"
    value {
      list {
        s: "loc:@FeatureExtractor/MobilenetV1/Conv2d_1_pointwise/BatchNorm/gamma"
      }
    }
  }
  attr {
    key: "dtype"
    value {
      type: DT_FLOAT
    }
  }
  attr {
    key: "value"
    value {
      tensor {
        dtype: DT_FLOAT
        tensor_shape {
          dim {
            size: 64
          }
        }
        float_val: 1.0
      }
    }
  }
}
node {
  name: "FeatureExtractor/MobilenetV1/Conv2d_1_pointwise/BatchNorm/gamma"
  op: "VariableV2"
  attr {
    key: "_class"
    value {
      list {
        s: "loc:@FeatureExtractor/MobilenetV1/Conv2d_1_pointwise/BatchNorm/gamma"
      }
    }
  }
  attr {
    key: "container"
    value {
      s: ""
    }
  }
  attr {
    key: "dtype"
    value {
      type: DT_FLOAT
    }
  }
  attr {
    key: "shape"
    value {
      shape {
        dim {
          size: 64
        }
      }
    }
  }
  attr {
    key: "shared_name"
    value {
      s: ""
    }
  }
}
node {
  name: "FeatureExtractor/MobilenetV1/Conv2d_1_pointwise/BatchNorm/gamma/Assign"
  op: "Assign"
  input: "FeatureExtractor/MobilenetV1/Conv2d_1_pointwise/BatchNorm/gamma"
  input: "FeatureExtractor/MobilenetV1/Conv2d_1_pointwise/BatchNorm/gamma/Initializer/ones"
  attr {
    key: "T"
    value {
      type: DT_FLOAT
    }
  }
  attr {
    key: "_class"
    value {
      list {
        s: "loc:@FeatureExtractor/MobilenetV1/Conv2d_1_pointwise/BatchNorm/gamma"
      }
    }
  }
  attr {
    key: "use_locking"
    value {
      b: true
    }
  }
  attr {
    key: "validate_shape"
    value {
      b: true
    }
  }
}
node {
  name: "FeatureExtractor/MobilenetV1/Conv2d_1_pointwise/BatchNorm/gamma/read"
  op: "Identity"
  input: "FeatureExtractor/MobilenetV1/Conv2d_1_pointwise/BatchNorm/gamma"
  attr {
    key: "T"
    value {
      type: DT_FLOAT
    }
  }
  attr {
    key: "_class"
    value {
      list {
        s: "loc:@FeatureExtractor/MobilenetV1/Conv2d_1_pointwise/BatchNorm/gamma"
      }
    }
  }
}
node {
  name: "FeatureExtractor/MobilenetV1/Conv2d_1_pointwise/BatchNorm/beta/Initializer/zeros"
  op: "Const"
  attr {
    key: "_class"
    value {
      list {
        s: "loc:@FeatureExtractor/MobilenetV1/Conv2d_1_pointwise/BatchNorm/beta"
      }
    }
  }
  attr {
    key: "dtype"
    value {
      type: DT_FLOAT
    }
  }
  attr {
    key: "value"
    value {
      tensor {
        dtype: DT_FLOAT
        tensor_shape {
          dim {
            size: 64
          }
        }
        float_val: 0.0
      }
    }
  }
}
node {
  name: "FeatureExtractor/MobilenetV1/Conv2d_1_pointwise/BatchNorm/beta"
  op: "VariableV2"
  attr {
    key: "_class"
    value {
      list {
        s: "loc:@FeatureExtractor/MobilenetV1/Conv2d_1_pointwise/BatchNorm/beta"
      }
    }
  }
  attr {
    key: "container"
    value {
      s: ""
    }
  }
  attr {
    key: "dtype"
    value {
      type: DT_FLOAT
    }
  }
  attr {
    key: "shape"
    value {
      shape {
        dim {
          size: 64
        }
      }
    }
  }
  attr {
    key: "shared_name"
    value {
      s: ""
    }
  }
}
node {
  name: "FeatureExtractor/MobilenetV1/Conv2d_1_pointwise/BatchNorm/beta/Assign"
  op: "Assign"
  input: "FeatureExtractor/MobilenetV1/Conv2d_1_pointwise/BatchNorm/beta"
  input: "FeatureExtractor/MobilenetV1/Conv2d_1_pointwise/BatchNorm/beta/Initializer/zeros"
  attr {
    key: "T"
    value {
      type: DT_FLOAT
    }
  }
  attr {
    key: "_class"
    value {
      list {
        s: "loc:@FeatureExtractor/MobilenetV1/Conv2d_1_pointwise/BatchNorm/beta"
      }
    }
  }
  attr {
    key: "use_locking"
    value {
      b: true
    }
  }
  attr {
    key: "validate_shape"
    value {
      b: true
    }
  }
}
node {
  name: "FeatureExtractor/MobilenetV1/Conv2d_1_pointwise/BatchNorm/beta/read"
  op: "Identity"
  input: "FeatureExtractor/MobilenetV1/Conv2d_1_pointwise/BatchNorm/beta"
  attr {
    key: "T"
    value {
      type: DT_FLOAT
    }
  }
  attr {
    key: "_class"
    value {
      list {
        s: "loc:@FeatureExtractor/MobilenetV1/Conv2d_1_pointwise/BatchNorm/beta"
      }
    }
  }
}
node {
  name: "FeatureExtractor/MobilenetV1/Conv2d_1_pointwise/BatchNorm/moving_mean/Initializer/zeros"
  op: "Const"
  attr {
    key: "_class"
    value {
      list {
        s: "loc:@FeatureExtractor/MobilenetV1/Conv2d_1_pointwise/BatchNorm/moving_mean"
      }
    }
  }
  attr {
    key: "dtype"
    value {
      type: DT_FLOAT
    }
  }
  attr {
    key: "value"
    value {
      tensor {
        dtype: DT_FLOAT
        tensor_shape {
          dim {
            size: 64
          }
        }
        float_val: 0.0
      }
    }
  }
}
node {
  name: "FeatureExtractor/MobilenetV1/Conv2d_1_pointwise/BatchNorm/moving_mean"
  op: "VariableV2"
  attr {
    key: "_class"
    value {
      list {
        s: "loc:@FeatureExtractor/MobilenetV1/Conv2d_1_pointwise/BatchNorm/moving_mean"
      }
    }
  }
  attr {
    key: "container"
    value {
      s: ""
    }
  }
  attr {
    key: "dtype"
    value {
      type: DT_FLOAT
    }
  }
  attr {
    key: "shape"
    value {
      shape {
        dim {
          size: 64
        }
      }
    }
  }
  attr {
    key: "shared_name"
    value {
      s: ""
    }
  }
}
node {
  name: "FeatureExtractor/MobilenetV1/Conv2d_1_pointwise/BatchNorm/moving_mean/Assign"
  op: "Assign"
  input: "FeatureExtractor/MobilenetV1/Conv2d_1_pointwise/BatchNorm/moving_mean"
  input: "FeatureExtractor/MobilenetV1/Conv2d_1_pointwise/BatchNorm/moving_mean/Initializer/zeros"
  attr {
    key: "T"
    value {
      type: DT_FLOAT
    }
  }
  attr {
    key: "_class"
    value {
      list {
        s: "loc:@FeatureExtractor/MobilenetV1/Conv2d_1_pointwise/BatchNorm/moving_mean"
      }
    }
  }
  attr {
    key: "use_locking"
    value {
      b: true
    }
  }
  attr {
    key: "validate_shape"
    value {
      b: true
    }
  }
}
node {
  name: "FeatureExtractor/MobilenetV1/Conv2d_1_pointwise/BatchNorm/moving_mean/read"
  op: "Identity"
  input: "FeatureExtractor/MobilenetV1/Conv2d_1_pointwise/BatchNorm/moving_mean"
  attr {
    key: "T"
    value {
      type: DT_FLOAT
    }
  }
  attr {
    key: "_class"
    value {
      list {
        s: "loc:@FeatureExtractor/MobilenetV1/Conv2d_1_pointwise/BatchNorm/moving_mean"
      }
    }
  }
}
node {
  name: "FeatureExtractor/MobilenetV1/Conv2d_1_pointwise/BatchNorm/moving_variance/Initializer/ones"
  op: "Const"
  attr {
    key: "_class"
    value {
      list {
        s: "loc:@FeatureExtractor/MobilenetV1/Conv2d_1_pointwise/BatchNorm/moving_variance"
      }
    }
  }
  attr {
    key: "dtype"
    value {
      type: DT_FLOAT
    }
  }
  attr {
    key: "value"
    value {
      tensor {
        dtype: DT_FLOAT
        tensor_shape {
          dim {
            size: 64
          }
        }
        float_val: 1.0
      }
    }
  }
}
node {
  name: "FeatureExtractor/MobilenetV1/Conv2d_1_pointwise/BatchNorm/moving_variance"
  op: "VariableV2"
  attr {
    key: "_class"
    value {
      list {
        s: "loc:@FeatureExtractor/MobilenetV1/Conv2d_1_pointwise/BatchNorm/moving_variance"
      }
    }
  }
  attr {
    key: "container"
    value {
      s: ""
    }
  }
  attr {
    key: "dtype"
    value {
      type: DT_FLOAT
    }
  }
  attr {
    key: "shape"
    value {
      shape {
        dim {
          size: 64
        }
      }
    }
  }
  attr {
    key: "shared_name"
    value {
      s: ""
    }
  }
}
node {
  name: "FeatureExtractor/MobilenetV1/Conv2d_1_pointwise/BatchNorm/moving_variance/Assign"
  op: "Assign"
  input: "FeatureExtractor/MobilenetV1/Conv2d_1_pointwise/BatchNorm/moving_variance"
  input: "FeatureExtractor/MobilenetV1/Conv2d_1_pointwise/BatchNorm/moving_variance/Initializer/ones"
  attr {
    key: "T"
    value {
      type: DT_FLOAT
    }
  }
  attr {
    key: "_class"
    value {
      list {
        s: "loc:@FeatureExtractor/MobilenetV1/Conv2d_1_pointwise/BatchNorm/moving_variance"
      }
    }
  }
  attr {
    key: "use_locking"
    value {
      b: true
    }
  }
  attr {
    key: "validate_shape"
    value {
      b: true
    }
  }
}
node {
  name: "FeatureExtractor/MobilenetV1/Conv2d_1_pointwise/BatchNorm/moving_variance/read"
  op: "Identity"
  input: "FeatureExtractor/MobilenetV1/Conv2d_1_pointwise/BatchNorm/moving_variance"
  attr {
    key: "T"
    value {
      type: DT_FLOAT
    }
  }
  attr {
    key: "_class"
    value {
      list {
        s: "loc:@FeatureExtractor/MobilenetV1/Conv2d_1_pointwise/BatchNorm/moving_variance"
      }
    }
  }
}
node {
  name: "FeatureExtractor/MobilenetV1/MobilenetV1/Conv2d_1_pointwise/BatchNorm/FusedBatchNorm"
  op: "FusedBatchNorm"
  input: "FeatureExtractor/MobilenetV1/MobilenetV1/Conv2d_1_pointwise/Conv2D"
  input: "FeatureExtractor/MobilenetV1/Conv2d_1_pointwise/BatchNorm/gamma/read"
  input: "FeatureExtractor/MobilenetV1/Conv2d_1_pointwise/BatchNorm/beta/read"
  input: "FeatureExtractor/MobilenetV1/Conv2d_1_pointwise/BatchNorm/moving_mean/read"
  input: "FeatureExtractor/MobilenetV1/Conv2d_1_pointwise/BatchNorm/moving_variance/read"
  attr {
    key: "T"
    value {
      type: DT_FLOAT
    }
  }
  attr {
    key: "data_format"
    value {
      s: "NHWC"
    }
  }
  attr {
    key: "epsilon"
    value {
      f: 0.0010000000474974513
    }
  }
  attr {
    key: "is_training"
    value {
      b: false
    }
  }
}
node {
  name: "FeatureExtractor/MobilenetV1/MobilenetV1/Conv2d_1_pointwise/BatchNorm/Const"
  op: "Const"
  attr {
    key: "dtype"
    value {
      type: DT_FLOAT
    }
  }
  attr {
    key: "value"
    value {
      tensor {
        dtype: DT_FLOAT
        tensor_shape {
        }
        float_val: 0.9997000098228455
      }
    }
  }
}
node {
  name: "FeatureExtractor/MobilenetV1/MobilenetV1/Conv2d_1_pointwise/Relu6"
  op: "Relu6"
  input: "FeatureExtractor/MobilenetV1/MobilenetV1/Conv2d_1_pointwise/BatchNorm/FusedBatchNorm"
  attr {
    key: "T"
    value {
      type: DT_FLOAT
    }
  }
}
node {
  name: "FeatureExtractor/MobilenetV1/Conv2d_2_depthwise/depthwise_weights/Initializer/truncated_normal/shape"
  op: "Const"
  attr {
    key: "_class"
    value {
      list {
        s: "loc:@FeatureExtractor/MobilenetV1/Conv2d_2_depthwise/depthwise_weights"
      }
    }
  }
  attr {
    key: "dtype"
    value {
      type: DT_INT32
    }
  }
  attr {
    key: "value"
    value {
      tensor {
        dtype: DT_INT32
        tensor_shape {
          dim {
            size: 4
          }
        }
        tensor_content: "\003\000\000\000\003\000\000\000@\000\000\000\001\000\000\000"
      }
    }
  }
}
node {
  name: "FeatureExtractor/MobilenetV1/Conv2d_2_depthwise/depthwise_weights/Initializer/truncated_normal/mean"
  op: "Const"
  attr {
    key: "_class"
    value {
      list {
        s: "loc:@FeatureExtractor/MobilenetV1/Conv2d_2_depthwise/depthwise_weights"
      }
    }
  }
  attr {
    key: "dtype"
    value {
      type: DT_FLOAT
    }
  }
  attr {
    key: "value"
    value {
      tensor {
        dtype: DT_FLOAT
        tensor_shape {
        }
        float_val: 0.0
      }
    }
  }
}
node {
  name: "FeatureExtractor/MobilenetV1/Conv2d_2_depthwise/depthwise_weights/Initializer/truncated_normal/stddev"
  op: "Const"
  attr {
    key: "_class"
    value {
      list {
        s: "loc:@FeatureExtractor/MobilenetV1/Conv2d_2_depthwise/depthwise_weights"
      }
    }
  }
  attr {
    key: "dtype"
    value {
      type: DT_FLOAT
    }
  }
  attr {
    key: "value"
    value {
      tensor {
        dtype: DT_FLOAT
        tensor_shape {
        }
        float_val: 0.09000000357627869
      }
    }
  }
}
node {
  name: "FeatureExtractor/MobilenetV1/Conv2d_2_depthwise/depthwise_weights/Initializer/truncated_normal/TruncatedNormal"
  op: "TruncatedNormal"
  input: "FeatureExtractor/MobilenetV1/Conv2d_2_depthwise/depthwise_weights/Initializer/truncated_normal/shape"
  attr {
    key: "T"
    value {
      type: DT_INT32
    }
  }
  attr {
    key: "_class"
    value {
      list {
        s: "loc:@FeatureExtractor/MobilenetV1/Conv2d_2_depthwise/depthwise_weights"
      }
    }
  }
  attr {
    key: "dtype"
    value {
      type: DT_FLOAT
    }
  }
  attr {
    key: "seed"
    value {
      i: 0
    }
  }
  attr {
    key: "seed2"
    value {
      i: 0
    }
  }
}
node {
  name: "FeatureExtractor/MobilenetV1/Conv2d_2_depthwise/depthwise_weights/Initializer/truncated_normal/mul"
  op: "Mul"
  input: "FeatureExtractor/MobilenetV1/Conv2d_2_depthwise/depthwise_weights/Initializer/truncated_normal/TruncatedNormal"
  input: "FeatureExtractor/MobilenetV1/Conv2d_2_depthwise/depthwise_weights/Initializer/truncated_normal/stddev"
  attr {
    key: "T"
    value {
      type: DT_FLOAT
    }
  }
  attr {
    key: "_class"
    value {
      list {
        s: "loc:@FeatureExtractor/MobilenetV1/Conv2d_2_depthwise/depthwise_weights"
      }
    }
  }
}
node {
  name: "FeatureExtractor/MobilenetV1/Conv2d_2_depthwise/depthwise_weights/Initializer/truncated_normal"
  op: "Add"
  input: "FeatureExtractor/MobilenetV1/Conv2d_2_depthwise/depthwise_weights/Initializer/truncated_normal/mul"
  input: "FeatureExtractor/MobilenetV1/Conv2d_2_depthwise/depthwise_weights/Initializer/truncated_normal/mean"
  attr {
    key: "T"
    value {
      type: DT_FLOAT
    }
  }
  attr {
    key: "_class"
    value {
      list {
        s: "loc:@FeatureExtractor/MobilenetV1/Conv2d_2_depthwise/depthwise_weights"
      }
    }
  }
}
node {
  name: "FeatureExtractor/MobilenetV1/Conv2d_2_depthwise/depthwise_weights"
  op: "VariableV2"
  attr {
    key: "_class"
    value {
      list {
        s: "loc:@FeatureExtractor/MobilenetV1/Conv2d_2_depthwise/depthwise_weights"
      }
    }
  }
  attr {
    key: "container"
    value {
      s: ""
    }
  }
  attr {
    key: "dtype"
    value {
      type: DT_FLOAT
    }
  }
  attr {
    key: "shape"
    value {
      shape {
        dim {
          size: 3
        }
        dim {
          size: 3
        }
        dim {
          size: 64
        }
        dim {
          size: 1
        }
      }
    }
  }
  attr {
    key: "shared_name"
    value {
      s: ""
    }
  }
}
node {
  name: "FeatureExtractor/MobilenetV1/Conv2d_2_depthwise/depthwise_weights/Assign"
  op: "Assign"
  input: "FeatureExtractor/MobilenetV1/Conv2d_2_depthwise/depthwise_weights"
  input: "FeatureExtractor/MobilenetV1/Conv2d_2_depthwise/depthwise_weights/Initializer/truncated_normal"
  attr {
    key: "T"
    value {
      type: DT_FLOAT
    }
  }
  attr {
    key: "_class"
    value {
      list {
        s: "loc:@FeatureExtractor/MobilenetV1/Conv2d_2_depthwise/depthwise_weights"
      }
    }
  }
  attr {
    key: "use_locking"
    value {
      b: true
    }
  }
  attr {
    key: "validate_shape"
    value {
      b: true
    }
  }
}
node {
  name: "FeatureExtractor/MobilenetV1/Conv2d_2_depthwise/depthwise_weights/read"
  op: "Identity"
  input: "FeatureExtractor/MobilenetV1/Conv2d_2_depthwise/depthwise_weights"
  attr {
    key: "T"
    value {
      type: DT_FLOAT
    }
  }
  attr {
    key: "_class"
    value {
      list {
        s: "loc:@FeatureExtractor/MobilenetV1/Conv2d_2_depthwise/depthwise_weights"
      }
    }
  }
}
node {
  name: "FeatureExtractor/MobilenetV1/Conv2d_2_depthwise/depthwise_weights/Regularizer/l2_regularizer/scale"
  op: "Const"
  attr {
    key: "_class"
    value {
      list {
        s: "loc:@FeatureExtractor/MobilenetV1/Conv2d_2_depthwise/depthwise_weights"
      }
    }
  }
  attr {
    key: "dtype"
    value {
      type: DT_FLOAT
    }
  }
  attr {
    key: "value"
    value {
      tensor {
        dtype: DT_FLOAT
        tensor_shape {
        }
        float_val: 3.9999998989515007e-05
      }
    }
  }
}
node {
  name: "FeatureExtractor/MobilenetV1/Conv2d_2_depthwise/depthwise_weights/Regularizer/l2_regularizer/L2Loss"
  op: "L2Loss"
  input: "FeatureExtractor/MobilenetV1/Conv2d_2_depthwise/depthwise_weights/read"
  attr {
    key: "T"
    value {
      type: DT_FLOAT
    }
  }
  attr {
    key: "_class"
    value {
      list {
        s: "loc:@FeatureExtractor/MobilenetV1/Conv2d_2_depthwise/depthwise_weights"
      }
    }
  }
}
node {
  name: "FeatureExtractor/MobilenetV1/Conv2d_2_depthwise/depthwise_weights/Regularizer/l2_regularizer"
  op: "Mul"
  input: "FeatureExtractor/MobilenetV1/Conv2d_2_depthwise/depthwise_weights/Regularizer/l2_regularizer/scale"
  input: "FeatureExtractor/MobilenetV1/Conv2d_2_depthwise/depthwise_weights/Regularizer/l2_regularizer/L2Loss"
  attr {
    key: "T"
    value {
      type: DT_FLOAT
    }
  }
  attr {
    key: "_class"
    value {
      list {
        s: "loc:@FeatureExtractor/MobilenetV1/Conv2d_2_depthwise/depthwise_weights"
      }
    }
  }
}
node {
  name: "FeatureExtractor/MobilenetV1/MobilenetV1/Conv2d_2_depthwise/depthwise/Shape"
  op: "Const"
  attr {
    key: "dtype"
    value {
      type: DT_INT32
    }
  }
  attr {
    key: "value"
    value {
      tensor {
        dtype: DT_INT32
        tensor_shape {
          dim {
            size: 4
          }
        }
        tensor_content: "\003\000\000\000\003\000\000\000@\000\000\000\001\000\000\000"
      }
    }
  }
}
node {
  name: "FeatureExtractor/MobilenetV1/MobilenetV1/Conv2d_2_depthwise/depthwise/dilation_rate"
  op: "Const"
  attr {
    key: "dtype"
    value {
      type: DT_INT32
    }
  }
  attr {
    key: "value"
    value {
      tensor {
        dtype: DT_INT32
        tensor_shape {
          dim {
            size: 2
          }
        }
        tensor_content: "\001\000\000\000\001\000\000\000"
      }
    }
  }
}
node {
  name: "FeatureExtractor/MobilenetV1/MobilenetV1/Conv2d_2_depthwise/depthwise"
  op: "DepthwiseConv2dNative"
  input: "FeatureExtractor/MobilenetV1/MobilenetV1/Conv2d_1_pointwise/Relu6"
  input: "FeatureExtractor/MobilenetV1/Conv2d_2_depthwise/depthwise_weights/read"
  attr {
    key: "T"
    value {
      type: DT_FLOAT
    }
  }
  attr {
    key: "data_format"
    value {
      s: "NHWC"
    }
  }
  attr {
    key: "dilations"
    value {
      list {
        i: 1
        i: 1
        i: 1
        i: 1
      }
    }
  }
  attr {
    key: "padding"
    value {
      s: "SAME"
    }
  }
  attr {
    key: "strides"
    value {
      list {
        i: 1
        i: 2
        i: 2
        i: 1
      }
    }
  }
}
node {
  name: "FeatureExtractor/MobilenetV1/Conv2d_2_depthwise/BatchNorm/gamma/Initializer/ones"
  op: "Const"
  attr {
    key: "_class"
    value {
      list {
        s: "loc:@FeatureExtractor/MobilenetV1/Conv2d_2_depthwise/BatchNorm/gamma"
      }
    }
  }
  attr {
    key: "dtype"
    value {
      type: DT_FLOAT
    }
  }
  attr {
    key: "value"
    value {
      tensor {
        dtype: DT_FLOAT
        tensor_shape {
          dim {
            size: 64
          }
        }
        float_val: 1.0
      }
    }
  }
}
node {
  name: "FeatureExtractor/MobilenetV1/Conv2d_2_depthwise/BatchNorm/gamma"
  op: "VariableV2"
  attr {
    key: "_class"
    value {
      list {
        s: "loc:@FeatureExtractor/MobilenetV1/Conv2d_2_depthwise/BatchNorm/gamma"
      }
    }
  }
  attr {
    key: "container"
    value {
      s: ""
    }
  }
  attr {
    key: "dtype"
    value {
      type: DT_FLOAT
    }
  }
  attr {
    key: "shape"
    value {
      shape {
        dim {
          size: 64
        }
      }
    }
  }
  attr {
    key: "shared_name"
    value {
      s: ""
    }
  }
}
node {
  name: "FeatureExtractor/MobilenetV1/Conv2d_2_depthwise/BatchNorm/gamma/Assign"
  op: "Assign"
  input: "FeatureExtractor/MobilenetV1/Conv2d_2_depthwise/BatchNorm/gamma"
  input: "FeatureExtractor/MobilenetV1/Conv2d_2_depthwise/BatchNorm/gamma/Initializer/ones"
  attr {
    key: "T"
    value {
      type: DT_FLOAT
    }
  }
  attr {
    key: "_class"
    value {
      list {
        s: "loc:@FeatureExtractor/MobilenetV1/Conv2d_2_depthwise/BatchNorm/gamma"
      }
    }
  }
  attr {
    key: "use_locking"
    value {
      b: true
    }
  }
  attr {
    key: "validate_shape"
    value {
      b: true
    }
  }
}
node {
  name: "FeatureExtractor/MobilenetV1/Conv2d_2_depthwise/BatchNorm/gamma/read"
  op: "Identity"
  input: "FeatureExtractor/MobilenetV1/Conv2d_2_depthwise/BatchNorm/gamma"
  attr {
    key: "T"
    value {
      type: DT_FLOAT
    }
  }
  attr {
    key: "_class"
    value {
      list {
        s: "loc:@FeatureExtractor/MobilenetV1/Conv2d_2_depthwise/BatchNorm/gamma"
      }
    }
  }
}
node {
  name: "FeatureExtractor/MobilenetV1/Conv2d_2_depthwise/BatchNorm/beta/Initializer/zeros"
  op: "Const"
  attr {
    key: "_class"
    value {
      list {
        s: "loc:@FeatureExtractor/MobilenetV1/Conv2d_2_depthwise/BatchNorm/beta"
      }
    }
  }
  attr {
    key: "dtype"
    value {
      type: DT_FLOAT
    }
  }
  attr {
    key: "value"
    value {
      tensor {
        dtype: DT_FLOAT
        tensor_shape {
          dim {
            size: 64
          }
        }
        float_val: 0.0
      }
    }
  }
}
node {
  name: "FeatureExtractor/MobilenetV1/Conv2d_2_depthwise/BatchNorm/beta"
  op: "VariableV2"
  attr {
    key: "_class"
    value {
      list {
        s: "loc:@FeatureExtractor/MobilenetV1/Conv2d_2_depthwise/BatchNorm/beta"
      }
    }
  }
  attr {
    key: "container"
    value {
      s: ""
    }
  }
  attr {
    key: "dtype"
    value {
      type: DT_FLOAT
    }
  }
  attr {
    key: "shape"
    value {
      shape {
        dim {
          size: 64
        }
      }
    }
  }
  attr {
    key: "shared_name"
    value {
      s: ""
    }
  }
}
node {
  name: "FeatureExtractor/MobilenetV1/Conv2d_2_depthwise/BatchNorm/beta/Assign"
  op: "Assign"
  input: "FeatureExtractor/MobilenetV1/Conv2d_2_depthwise/BatchNorm/beta"
  input: "FeatureExtractor/MobilenetV1/Conv2d_2_depthwise/BatchNorm/beta/Initializer/zeros"
  attr {
    key: "T"
    value {
      type: DT_FLOAT
    }
  }
  attr {
    key: "_class"
    value {
      list {
        s: "loc:@FeatureExtractor/MobilenetV1/Conv2d_2_depthwise/BatchNorm/beta"
      }
    }
  }
  attr {
    key: "use_locking"
    value {
      b: true
    }
  }
  attr {
    key: "validate_shape"
    value {
      b: true
    }
  }
}
node {
  name: "FeatureExtractor/MobilenetV1/Conv2d_2_depthwise/BatchNorm/beta/read"
  op: "Identity"
  input: "FeatureExtractor/MobilenetV1/Conv2d_2_depthwise/BatchNorm/beta"
  attr {
    key: "T"
    value {
      type: DT_FLOAT
    }
  }
  attr {
    key: "_class"
    value {
      list {
        s: "loc:@FeatureExtractor/MobilenetV1/Conv2d_2_depthwise/BatchNorm/beta"
      }
    }
  }
}
node {
  name: "FeatureExtractor/MobilenetV1/Conv2d_2_depthwise/BatchNorm/moving_mean/Initializer/zeros"
  op: "Const"
  attr {
    key: "_class"
    value {
      list {
        s: "loc:@FeatureExtractor/MobilenetV1/Conv2d_2_depthwise/BatchNorm/moving_mean"
      }
    }
  }
  attr {
    key: "dtype"
    value {
      type: DT_FLOAT
    }
  }
  attr {
    key: "value"
    value {
      tensor {
        dtype: DT_FLOAT
        tensor_shape {
          dim {
            size: 64
          }
        }
        float_val: 0.0
      }
    }
  }
}
node {
  name: "FeatureExtractor/MobilenetV1/Conv2d_2_depthwise/BatchNorm/moving_mean"
  op: "VariableV2"
  attr {
    key: "_class"
    value {
      list {
        s: "loc:@FeatureExtractor/MobilenetV1/Conv2d_2_depthwise/BatchNorm/moving_mean"
      }
    }
  }
  attr {
    key: "container"
    value {
      s: ""
    }
  }
  attr {
    key: "dtype"
    value {
      type: DT_FLOAT
    }
  }
  attr {
    key: "shape"
    value {
      shape {
        dim {
          size: 64
        }
      }
    }
  }
  attr {
    key: "shared_name"
    value {
      s: ""
    }
  }
}
node {
  name: "FeatureExtractor/MobilenetV1/Conv2d_2_depthwise/BatchNorm/moving_mean/Assign"
  op: "Assign"
  input: "FeatureExtractor/MobilenetV1/Conv2d_2_depthwise/BatchNorm/moving_mean"
  input: "FeatureExtractor/MobilenetV1/Conv2d_2_depthwise/BatchNorm/moving_mean/Initializer/zeros"
  attr {
    key: "T"
    value {
      type: DT_FLOAT
    }
  }
  attr {
    key: "_class"
    value {
      list {
        s: "loc:@FeatureExtractor/MobilenetV1/Conv2d_2_depthwise/BatchNorm/moving_mean"
      }
    }
  }
  attr {
    key: "use_locking"
    value {
      b: true
    }
  }
  attr {
    key: "validate_shape"
    value {
      b: true
    }
  }
}
node {
  name: "FeatureExtractor/MobilenetV1/Conv2d_2_depthwise/BatchNorm/moving_mean/read"
  op: "Identity"
  input: "FeatureExtractor/MobilenetV1/Conv2d_2_depthwise/BatchNorm/moving_mean"
  attr {
    key: "T"
    value {
      type: DT_FLOAT
    }
  }
  attr {
    key: "_class"
    value {
      list {
        s: "loc:@FeatureExtractor/MobilenetV1/Conv2d_2_depthwise/BatchNorm/moving_mean"
      }
    }
  }
}
node {
  name: "FeatureExtractor/MobilenetV1/Conv2d_2_depthwise/BatchNorm/moving_variance/Initializer/ones"
  op: "Const"
  attr {
    key: "_class"
    value {
      list {
        s: "loc:@FeatureExtractor/MobilenetV1/Conv2d_2_depthwise/BatchNorm/moving_variance"
      }
    }
  }
  attr {
    key: "dtype"
    value {
      type: DT_FLOAT
    }
  }
  attr {
    key: "value"
    value {
      tensor {
        dtype: DT_FLOAT
        tensor_shape {
          dim {
            size: 64
          }
        }
        float_val: 1.0
      }
    }
  }
}
node {
  name: "FeatureExtractor/MobilenetV1/Conv2d_2_depthwise/BatchNorm/moving_variance"
  op: "VariableV2"
  attr {
    key: "_class"
    value {
      list {
        s: "loc:@FeatureExtractor/MobilenetV1/Conv2d_2_depthwise/BatchNorm/moving_variance"
      }
    }
  }
  attr {
    key: "container"
    value {
      s: ""
    }
  }
  attr {
    key: "dtype"
    value {
      type: DT_FLOAT
    }
  }
  attr {
    key: "shape"
    value {
      shape {
        dim {
          size: 64
        }
      }
    }
  }
  attr {
    key: "shared_name"
    value {
      s: ""
    }
  }
}
node {
  name: "FeatureExtractor/MobilenetV1/Conv2d_2_depthwise/BatchNorm/moving_variance/Assign"
  op: "Assign"
  input: "FeatureExtractor/MobilenetV1/Conv2d_2_depthwise/BatchNorm/moving_variance"
  input: "FeatureExtractor/MobilenetV1/Conv2d_2_depthwise/BatchNorm/moving_variance/Initializer/ones"
  attr {
    key: "T"
    value {
      type: DT_FLOAT
    }
  }
  attr {
    key: "_class"
    value {
      list {
        s: "loc:@FeatureExtractor/MobilenetV1/Conv2d_2_depthwise/BatchNorm/moving_variance"
      }
    }
  }
  attr {
    key: "use_locking"
    value {
      b: true
    }
  }
  attr {
    key: "validate_shape"
    value {
      b: true
    }
  }
}
node {
  name: "FeatureExtractor/MobilenetV1/Conv2d_2_depthwise/BatchNorm/moving_variance/read"
  op: "Identity"
  input: "FeatureExtractor/MobilenetV1/Conv2d_2_depthwise/BatchNorm/moving_variance"
  attr {
    key: "T"
    value {
      type: DT_FLOAT
    }
  }
  attr {
    key: "_class"
    value {
      list {
        s: "loc:@FeatureExtractor/MobilenetV1/Conv2d_2_depthwise/BatchNorm/moving_variance"
      }
    }
  }
}
node {
  name: "FeatureExtractor/MobilenetV1/MobilenetV1/Conv2d_2_depthwise/BatchNorm/FusedBatchNorm"
  op: "FusedBatchNorm"
  input: "FeatureExtractor/MobilenetV1/MobilenetV1/Conv2d_2_depthwise/depthwise"
  input: "FeatureExtractor/MobilenetV1/Conv2d_2_depthwise/BatchNorm/gamma/read"
  input: "FeatureExtractor/MobilenetV1/Conv2d_2_depthwise/BatchNorm/beta/read"
  input: "FeatureExtractor/MobilenetV1/Conv2d_2_depthwise/BatchNorm/moving_mean/read"
  input: "FeatureExtractor/MobilenetV1/Conv2d_2_depthwise/BatchNorm/moving_variance/read"
  attr {
    key: "T"
    value {
      type: DT_FLOAT
    }
  }
  attr {
    key: "data_format"
    value {
      s: "NHWC"
    }
  }
  attr {
    key: "epsilon"
    value {
      f: 0.0010000000474974513
    }
  }
  attr {
    key: "is_training"
    value {
      b: false
    }
  }
}
node {
  name: "FeatureExtractor/MobilenetV1/MobilenetV1/Conv2d_2_depthwise/BatchNorm/Const"
  op: "Const"
  attr {
    key: "dtype"
    value {
      type: DT_FLOAT
    }
  }
  attr {
    key: "value"
    value {
      tensor {
        dtype: DT_FLOAT
        tensor_shape {
        }
        float_val: 0.9997000098228455
      }
    }
  }
}
node {
  name: "FeatureExtractor/MobilenetV1/MobilenetV1/Conv2d_2_depthwise/Relu6"
  op: "Relu6"
  input: "FeatureExtractor/MobilenetV1/MobilenetV1/Conv2d_2_depthwise/BatchNorm/FusedBatchNorm"
  attr {
    key: "T"
    value {
      type: DT_FLOAT
    }
  }
}
node {
  name: "FeatureExtractor/MobilenetV1/Conv2d_2_pointwise/weights/Initializer/truncated_normal/shape"
  op: "Const"
  attr {
    key: "_class"
    value {
      list {
        s: "loc:@FeatureExtractor/MobilenetV1/Conv2d_2_pointwise/weights"
      }
    }
  }
  attr {
    key: "dtype"
    value {
      type: DT_INT32
    }
  }
  attr {
    key: "value"
    value {
      tensor {
        dtype: DT_INT32
        tensor_shape {
          dim {
            size: 4
          }
        }
        tensor_content: "\001\000\000\000\001\000\000\000@\000\000\000\200\000\000\000"
      }
    }
  }
}
node {
  name: "FeatureExtractor/MobilenetV1/Conv2d_2_pointwise/weights/Initializer/truncated_normal/mean"
  op: "Const"
  attr {
    key: "_class"
    value {
      list {
        s: "loc:@FeatureExtractor/MobilenetV1/Conv2d_2_pointwise/weights"
      }
    }
  }
  attr {
    key: "dtype"
    value {
      type: DT_FLOAT
    }
  }
  attr {
    key: "value"
    value {
      tensor {
        dtype: DT_FLOAT
        tensor_shape {
        }
        float_val: 0.0
      }
    }
  }
}
node {
  name: "FeatureExtractor/MobilenetV1/Conv2d_2_pointwise/weights/Initializer/truncated_normal/stddev"
  op: "Const"
  attr {
    key: "_class"
    value {
      list {
        s: "loc:@FeatureExtractor/MobilenetV1/Conv2d_2_pointwise/weights"
      }
    }
  }
  attr {
    key: "dtype"
    value {
      type: DT_FLOAT
    }
  }
  attr {
    key: "value"
    value {
      tensor {
        dtype: DT_FLOAT
        tensor_shape {
        }
        float_val: 0.09000000357627869
      }
    }
  }
}
node {
  name: "FeatureExtractor/MobilenetV1/Conv2d_2_pointwise/weights/Initializer/truncated_normal/TruncatedNormal"
  op: "TruncatedNormal"
  input: "FeatureExtractor/MobilenetV1/Conv2d_2_pointwise/weights/Initializer/truncated_normal/shape"
  attr {
    key: "T"
    value {
      type: DT_INT32
    }
  }
  attr {
    key: "_class"
    value {
      list {
        s: "loc:@FeatureExtractor/MobilenetV1/Conv2d_2_pointwise/weights"
      }
    }
  }
  attr {
    key: "dtype"
    value {
      type: DT_FLOAT
    }
  }
  attr {
    key: "seed"
    value {
      i: 0
    }
  }
  attr {
    key: "seed2"
    value {
      i: 0
    }
  }
}
node {
  name: "FeatureExtractor/MobilenetV1/Conv2d_2_pointwise/weights/Initializer/truncated_normal/mul"
  op: "Mul"
  input: "FeatureExtractor/MobilenetV1/Conv2d_2_pointwise/weights/Initializer/truncated_normal/TruncatedNormal"
  input: "FeatureExtractor/MobilenetV1/Conv2d_2_pointwise/weights/Initializer/truncated_normal/stddev"
  attr {
    key: "T"
    value {
      type: DT_FLOAT
    }
  }
  attr {
    key: "_class"
    value {
      list {
        s: "loc:@FeatureExtractor/MobilenetV1/Conv2d_2_pointwise/weights"
      }
    }
  }
}
node {
  name: "FeatureExtractor/MobilenetV1/Conv2d_2_pointwise/weights/Initializer/truncated_normal"
  op: "Add"
  input: "FeatureExtractor/MobilenetV1/Conv2d_2_pointwise/weights/Initializer/truncated_normal/mul"
  input: "FeatureExtractor/MobilenetV1/Conv2d_2_pointwise/weights/Initializer/truncated_normal/mean"
  attr {
    key: "T"
    value {
      type: DT_FLOAT
    }
  }
  attr {
    key: "_class"
    value {
      list {
        s: "loc:@FeatureExtractor/MobilenetV1/Conv2d_2_pointwise/weights"
      }
    }
  }
}
node {
  name: "FeatureExtractor/MobilenetV1/Conv2d_2_pointwise/weights"
  op: "VariableV2"
  attr {
    key: "_class"
    value {
      list {
        s: "loc:@FeatureExtractor/MobilenetV1/Conv2d_2_pointwise/weights"
      }
    }
  }
  attr {
    key: "container"
    value {
      s: ""
    }
  }
  attr {
    key: "dtype"
    value {
      type: DT_FLOAT
    }
  }
  attr {
    key: "shape"
    value {
      shape {
        dim {
          size: 1
        }
        dim {
          size: 1
        }
        dim {
          size: 64
        }
        dim {
          size: 128
        }
      }
    }
  }
  attr {
    key: "shared_name"
    value {
      s: ""
    }
  }
}
node {
  name: "FeatureExtractor/MobilenetV1/Conv2d_2_pointwise/weights/Assign"
  op: "Assign"
  input: "FeatureExtractor/MobilenetV1/Conv2d_2_pointwise/weights"
  input: "FeatureExtractor/MobilenetV1/Conv2d_2_pointwise/weights/Initializer/truncated_normal"
  attr {
    key: "T"
    value {
      type: DT_FLOAT
    }
  }
  attr {
    key: "_class"
    value {
      list {
        s: "loc:@FeatureExtractor/MobilenetV1/Conv2d_2_pointwise/weights"
      }
    }
  }
  attr {
    key: "use_locking"
    value {
      b: true
    }
  }
  attr {
    key: "validate_shape"
    value {
      b: true
    }
  }
}
node {
  name: "FeatureExtractor/MobilenetV1/Conv2d_2_pointwise/weights/read"
  op: "Identity"
  input: "FeatureExtractor/MobilenetV1/Conv2d_2_pointwise/weights"
  attr {
    key: "T"
    value {
      type: DT_FLOAT
    }
  }
  attr {
    key: "_class"
    value {
      list {
        s: "loc:@FeatureExtractor/MobilenetV1/Conv2d_2_pointwise/weights"
      }
    }
  }
}
node {
  name: "FeatureExtractor/MobilenetV1/MobilenetV1/Conv2d_2_pointwise/kernel/Regularizer/l2_regularizer/scale"
  op: "Const"
  attr {
    key: "dtype"
    value {
      type: DT_FLOAT
    }
  }
  attr {
    key: "value"
    value {
      tensor {
        dtype: DT_FLOAT
        tensor_shape {
        }
        float_val: 3.9999998989515007e-05
      }
    }
  }
}
node {
  name: "FeatureExtractor/MobilenetV1/MobilenetV1/Conv2d_2_pointwise/kernel/Regularizer/l2_regularizer/L2Loss"
  op: "L2Loss"
  input: "FeatureExtractor/MobilenetV1/Conv2d_2_pointwise/weights/read"
  attr {
    key: "T"
    value {
      type: DT_FLOAT
    }
  }
}
node {
  name: "FeatureExtractor/MobilenetV1/MobilenetV1/Conv2d_2_pointwise/kernel/Regularizer/l2_regularizer"
  op: "Mul"
  input: "FeatureExtractor/MobilenetV1/MobilenetV1/Conv2d_2_pointwise/kernel/Regularizer/l2_regularizer/scale"
  input: "FeatureExtractor/MobilenetV1/MobilenetV1/Conv2d_2_pointwise/kernel/Regularizer/l2_regularizer/L2Loss"
  attr {
    key: "T"
    value {
      type: DT_FLOAT
    }
  }
}
node {
  name: "FeatureExtractor/MobilenetV1/MobilenetV1/Conv2d_2_pointwise/dilation_rate"
  op: "Const"
  attr {
    key: "dtype"
    value {
      type: DT_INT32
    }
  }
  attr {
    key: "value"
    value {
      tensor {
        dtype: DT_INT32
        tensor_shape {
          dim {
            size: 2
          }
        }
        tensor_content: "\001\000\000\000\001\000\000\000"
      }
    }
  }
}
node {
  name: "FeatureExtractor/MobilenetV1/MobilenetV1/Conv2d_2_pointwise/Conv2D"
  op: "Conv2D"
  input: "FeatureExtractor/MobilenetV1/MobilenetV1/Conv2d_2_depthwise/Relu6"
  input: "FeatureExtractor/MobilenetV1/Conv2d_2_pointwise/weights/read"
  attr {
    key: "T"
    value {
      type: DT_FLOAT
    }
  }
  attr {
    key: "data_format"
    value {
      s: "NHWC"
    }
  }
  attr {
    key: "dilations"
    value {
      list {
        i: 1
        i: 1
        i: 1
        i: 1
      }
    }
  }
  attr {
    key: "padding"
    value {
      s: "SAME"
    }
  }
  attr {
    key: "strides"
    value {
      list {
        i: 1
        i: 1
        i: 1
        i: 1
      }
    }
  }
  attr {
    key: "use_cudnn_on_gpu"
    value {
      b: true
    }
  }
}
node {
  name: "FeatureExtractor/MobilenetV1/Conv2d_2_pointwise/BatchNorm/gamma/Initializer/ones"
  op: "Const"
  attr {
    key: "_class"
    value {
      list {
        s: "loc:@FeatureExtractor/MobilenetV1/Conv2d_2_pointwise/BatchNorm/gamma"
      }
    }
  }
  attr {
    key: "dtype"
    value {
      type: DT_FLOAT
    }
  }
  attr {
    key: "value"
    value {
      tensor {
        dtype: DT_FLOAT
        tensor_shape {
          dim {
            size: 128
          }
        }
        float_val: 1.0
      }
    }
  }
}
node {
  name: "FeatureExtractor/MobilenetV1/Conv2d_2_pointwise/BatchNorm/gamma"
  op: "VariableV2"
  attr {
    key: "_class"
    value {
      list {
        s: "loc:@FeatureExtractor/MobilenetV1/Conv2d_2_pointwise/BatchNorm/gamma"
      }
    }
  }
  attr {
    key: "container"
    value {
      s: ""
    }
  }
  attr {
    key: "dtype"
    value {
      type: DT_FLOAT
    }
  }
  attr {
    key: "shape"
    value {
      shape {
        dim {
          size: 128
        }
      }
    }
  }
  attr {
    key: "shared_name"
    value {
      s: ""
    }
  }
}
node {
  name: "FeatureExtractor/MobilenetV1/Conv2d_2_pointwise/BatchNorm/gamma/Assign"
  op: "Assign"
  input: "FeatureExtractor/MobilenetV1/Conv2d_2_pointwise/BatchNorm/gamma"
  input: "FeatureExtractor/MobilenetV1/Conv2d_2_pointwise/BatchNorm/gamma/Initializer/ones"
  attr {
    key: "T"
    value {
      type: DT_FLOAT
    }
  }
  attr {
    key: "_class"
    value {
      list {
        s: "loc:@FeatureExtractor/MobilenetV1/Conv2d_2_pointwise/BatchNorm/gamma"
      }
    }
  }
  attr {
    key: "use_locking"
    value {
      b: true
    }
  }
  attr {
    key: "validate_shape"
    value {
      b: true
    }
  }
}
node {
  name: "FeatureExtractor/MobilenetV1/Conv2d_2_pointwise/BatchNorm/gamma/read"
  op: "Identity"
  input: "FeatureExtractor/MobilenetV1/Conv2d_2_pointwise/BatchNorm/gamma"
  attr {
    key: "T"
    value {
      type: DT_FLOAT
    }
  }
  attr {
    key: "_class"
    value {
      list {
        s: "loc:@FeatureExtractor/MobilenetV1/Conv2d_2_pointwise/BatchNorm/gamma"
      }
    }
  }
}
node {
  name: "FeatureExtractor/MobilenetV1/Conv2d_2_pointwise/BatchNorm/beta/Initializer/zeros"
  op: "Const"
  attr {
    key: "_class"
    value {
      list {
        s: "loc:@FeatureExtractor/MobilenetV1/Conv2d_2_pointwise/BatchNorm/beta"
      }
    }
  }
  attr {
    key: "dtype"
    value {
      type: DT_FLOAT
    }
  }
  attr {
    key: "value"
    value {
      tensor {
        dtype: DT_FLOAT
        tensor_shape {
          dim {
            size: 128
          }
        }
        float_val: 0.0
      }
    }
  }
}
node {
  name: "FeatureExtractor/MobilenetV1/Conv2d_2_pointwise/BatchNorm/beta"
  op: "VariableV2"
  attr {
    key: "_class"
    value {
      list {
        s: "loc:@FeatureExtractor/MobilenetV1/Conv2d_2_pointwise/BatchNorm/beta"
      }
    }
  }
  attr {
    key: "container"
    value {
      s: ""
    }
  }
  attr {
    key: "dtype"
    value {
      type: DT_FLOAT
    }
  }
  attr {
    key: "shape"
    value {
      shape {
        dim {
          size: 128
        }
      }
    }
  }
  attr {
    key: "shared_name"
    value {
      s: ""
    }
  }
}
node {
  name: "FeatureExtractor/MobilenetV1/Conv2d_2_pointwise/BatchNorm/beta/Assign"
  op: "Assign"
  input: "FeatureExtractor/MobilenetV1/Conv2d_2_pointwise/BatchNorm/beta"
  input: "FeatureExtractor/MobilenetV1/Conv2d_2_pointwise/BatchNorm/beta/Initializer/zeros"
  attr {
    key: "T"
    value {
      type: DT_FLOAT
    }
  }
  attr {
    key: "_class"
    value {
      list {
        s: "loc:@FeatureExtractor/MobilenetV1/Conv2d_2_pointwise/BatchNorm/beta"
      }
    }
  }
  attr {
    key: "use_locking"
    value {
      b: true
    }
  }
  attr {
    key: "validate_shape"
    value {
      b: true
    }
  }
}
node {
  name: "FeatureExtractor/MobilenetV1/Conv2d_2_pointwise/BatchNorm/beta/read"
  op: "Identity"
  input: "FeatureExtractor/MobilenetV1/Conv2d_2_pointwise/BatchNorm/beta"
  attr {
    key: "T"
    value {
      type: DT_FLOAT
    }
  }
  attr {
    key: "_class"
    value {
      list {
        s: "loc:@FeatureExtractor/MobilenetV1/Conv2d_2_pointwise/BatchNorm/beta"
      }
    }
  }
}
node {
  name: "FeatureExtractor/MobilenetV1/Conv2d_2_pointwise/BatchNorm/moving_mean/Initializer/zeros"
  op: "Const"
  attr {
    key: "_class"
    value {
      list {
        s: "loc:@FeatureExtractor/MobilenetV1/Conv2d_2_pointwise/BatchNorm/moving_mean"
      }
    }
  }
  attr {
    key: "dtype"
    value {
      type: DT_FLOAT
    }
  }
  attr {
    key: "value"
    value {
      tensor {
        dtype: DT_FLOAT
        tensor_shape {
          dim {
            size: 128
          }
        }
        float_val: 0.0
      }
    }
  }
}
node {
  name: "FeatureExtractor/MobilenetV1/Conv2d_2_pointwise/BatchNorm/moving_mean"
  op: "VariableV2"
  attr {
    key: "_class"
    value {
      list {
        s: "loc:@FeatureExtractor/MobilenetV1/Conv2d_2_pointwise/BatchNorm/moving_mean"
      }
    }
  }
  attr {
    key: "container"
    value {
      s: ""
    }
  }
  attr {
    key: "dtype"
    value {
      type: DT_FLOAT
    }
  }
  attr {
    key: "shape"
    value {
      shape {
        dim {
          size: 128
        }
      }
    }
  }
  attr {
    key: "shared_name"
    value {
      s: ""
    }
  }
}
node {
  name: "FeatureExtractor/MobilenetV1/Conv2d_2_pointwise/BatchNorm/moving_mean/Assign"
  op: "Assign"
  input: "FeatureExtractor/MobilenetV1/Conv2d_2_pointwise/BatchNorm/moving_mean"
  input: "FeatureExtractor/MobilenetV1/Conv2d_2_pointwise/BatchNorm/moving_mean/Initializer/zeros"
  attr {
    key: "T"
    value {
      type: DT_FLOAT
    }
  }
  attr {
    key: "_class"
    value {
      list {
        s: "loc:@FeatureExtractor/MobilenetV1/Conv2d_2_pointwise/BatchNorm/moving_mean"
      }
    }
  }
  attr {
    key: "use_locking"
    value {
      b: true
    }
  }
  attr {
    key: "validate_shape"
    value {
      b: true
    }
  }
}
node {
  name: "FeatureExtractor/MobilenetV1/Conv2d_2_pointwise/BatchNorm/moving_mean/read"
  op: "Identity"
  input: "FeatureExtractor/MobilenetV1/Conv2d_2_pointwise/BatchNorm/moving_mean"
  attr {
    key: "T"
    value {
      type: DT_FLOAT
    }
  }
  attr {
    key: "_class"
    value {
      list {
        s: "loc:@FeatureExtractor/MobilenetV1/Conv2d_2_pointwise/BatchNorm/moving_mean"
      }
    }
  }
}
node {
  name: "FeatureExtractor/MobilenetV1/Conv2d_2_pointwise/BatchNorm/moving_variance/Initializer/ones"
  op: "Const"
  attr {
    key: "_class"
    value {
      list {
        s: "loc:@FeatureExtractor/MobilenetV1/Conv2d_2_pointwise/BatchNorm/moving_variance"
      }
    }
  }
  attr {
    key: "dtype"
    value {
      type: DT_FLOAT
    }
  }
  attr {
    key: "value"
    value {
      tensor {
        dtype: DT_FLOAT
        tensor_shape {
          dim {
            size: 128
          }
        }
        float_val: 1.0
      }
    }
  }
}
node {
  name: "FeatureExtractor/MobilenetV1/Conv2d_2_pointwise/BatchNorm/moving_variance"
  op: "VariableV2"
  attr {
    key: "_class"
    value {
      list {
        s: "loc:@FeatureExtractor/MobilenetV1/Conv2d_2_pointwise/BatchNorm/moving_variance"
      }
    }
  }
  attr {
    key: "container"
    value {
      s: ""
    }
  }
  attr {
    key: "dtype"
    value {
      type: DT_FLOAT
    }
  }
  attr {
    key: "shape"
    value {
      shape {
        dim {
          size: 128
        }
      }
    }
  }
  attr {
    key: "shared_name"
    value {
      s: ""
    }
  }
}
node {
  name: "FeatureExtractor/MobilenetV1/Conv2d_2_pointwise/BatchNorm/moving_variance/Assign"
  op: "Assign"
  input: "FeatureExtractor/MobilenetV1/Conv2d_2_pointwise/BatchNorm/moving_variance"
  input: "FeatureExtractor/MobilenetV1/Conv2d_2_pointwise/BatchNorm/moving_variance/Initializer/ones"
  attr {
    key: "T"
    value {
      type: DT_FLOAT
    }
  }
  attr {
    key: "_class"
    value {
      list {
        s: "loc:@FeatureExtractor/MobilenetV1/Conv2d_2_pointwise/BatchNorm/moving_variance"
      }
    }
  }
  attr {
    key: "use_locking"
    value {
      b: true
    }
  }
  attr {
    key: "validate_shape"
    value {
      b: true
    }
  }
}
node {
  name: "FeatureExtractor/MobilenetV1/Conv2d_2_pointwise/BatchNorm/moving_variance/read"
  op: "Identity"
  input: "FeatureExtractor/MobilenetV1/Conv2d_2_pointwise/BatchNorm/moving_variance"
  attr {
    key: "T"
    value {
      type: DT_FLOAT
    }
  }
  attr {
    key: "_class"
    value {
      list {
        s: "loc:@FeatureExtractor/MobilenetV1/Conv2d_2_pointwise/BatchNorm/moving_variance"
      }
    }
  }
}
node {
  name: "FeatureExtractor/MobilenetV1/MobilenetV1/Conv2d_2_pointwise/BatchNorm/FusedBatchNorm"
  op: "FusedBatchNorm"
  input: "FeatureExtractor/MobilenetV1/MobilenetV1/Conv2d_2_pointwise/Conv2D"
  input: "FeatureExtractor/MobilenetV1/Conv2d_2_pointwise/BatchNorm/gamma/read"
  input: "FeatureExtractor/MobilenetV1/Conv2d_2_pointwise/BatchNorm/beta/read"
  input: "FeatureExtractor/MobilenetV1/Conv2d_2_pointwise/BatchNorm/moving_mean/read"
  input: "FeatureExtractor/MobilenetV1/Conv2d_2_pointwise/BatchNorm/moving_variance/read"
  attr {
    key: "T"
    value {
      type: DT_FLOAT
    }
  }
  attr {
    key: "data_format"
    value {
      s: "NHWC"
    }
  }
  attr {
    key: "epsilon"
    value {
      f: 0.0010000000474974513
    }
  }
  attr {
    key: "is_training"
    value {
      b: false
    }
  }
}
node {
  name: "FeatureExtractor/MobilenetV1/MobilenetV1/Conv2d_2_pointwise/BatchNorm/Const"
  op: "Const"
  attr {
    key: "dtype"
    value {
      type: DT_FLOAT
    }
  }
  attr {
    key: "value"
    value {
      tensor {
        dtype: DT_FLOAT
        tensor_shape {
        }
        float_val: 0.9997000098228455
      }
    }
  }
}
node {
  name: "FeatureExtractor/MobilenetV1/MobilenetV1/Conv2d_2_pointwise/Relu6"
  op: "Relu6"
  input: "FeatureExtractor/MobilenetV1/MobilenetV1/Conv2d_2_pointwise/BatchNorm/FusedBatchNorm"
  attr {
    key: "T"
    value {
      type: DT_FLOAT
    }
  }
}
node {
  name: "FeatureExtractor/MobilenetV1/Conv2d_3_depthwise/depthwise_weights/Initializer/truncated_normal/shape"
  op: "Const"
  attr {
    key: "_class"
    value {
      list {
        s: "loc:@FeatureExtractor/MobilenetV1/Conv2d_3_depthwise/depthwise_weights"
      }
    }
  }
  attr {
    key: "dtype"
    value {
      type: DT_INT32
    }
  }
  attr {
    key: "value"
    value {
      tensor {
        dtype: DT_INT32
        tensor_shape {
          dim {
            size: 4
          }
        }
        tensor_content: "\003\000\000\000\003\000\000\000\200\000\000\000\001\000\000\000"
      }
    }
  }
}
node {
  name: "FeatureExtractor/MobilenetV1/Conv2d_3_depthwise/depthwise_weights/Initializer/truncated_normal/mean"
  op: "Const"
  attr {
    key: "_class"
    value {
      list {
        s: "loc:@FeatureExtractor/MobilenetV1/Conv2d_3_depthwise/depthwise_weights"
      }
    }
  }
  attr {
    key: "dtype"
    value {
      type: DT_FLOAT
    }
  }
  attr {
    key: "value"
    value {
      tensor {
        dtype: DT_FLOAT
        tensor_shape {
        }
        float_val: 0.0
      }
    }
  }
}
node {
  name: "FeatureExtractor/MobilenetV1/Conv2d_3_depthwise/depthwise_weights/Initializer/truncated_normal/stddev"
  op: "Const"
  attr {
    key: "_class"
    value {
      list {
        s: "loc:@FeatureExtractor/MobilenetV1/Conv2d_3_depthwise/depthwise_weights"
      }
    }
  }
  attr {
    key: "dtype"
    value {
      type: DT_FLOAT
    }
  }
  attr {
    key: "value"
    value {
      tensor {
        dtype: DT_FLOAT
        tensor_shape {
        }
        float_val: 0.09000000357627869
      }
    }
  }
}
node {
  name: "FeatureExtractor/MobilenetV1/Conv2d_3_depthwise/depthwise_weights/Initializer/truncated_normal/TruncatedNormal"
  op: "TruncatedNormal"
  input: "FeatureExtractor/MobilenetV1/Conv2d_3_depthwise/depthwise_weights/Initializer/truncated_normal/shape"
  attr {
    key: "T"
    value {
      type: DT_INT32
    }
  }
  attr {
    key: "_class"
    value {
      list {
        s: "loc:@FeatureExtractor/MobilenetV1/Conv2d_3_depthwise/depthwise_weights"
      }
    }
  }
  attr {
    key: "dtype"
    value {
      type: DT_FLOAT
    }
  }
  attr {
    key: "seed"
    value {
      i: 0
    }
  }
  attr {
    key: "seed2"
    value {
      i: 0
    }
  }
}
node {
  name: "FeatureExtractor/MobilenetV1/Conv2d_3_depthwise/depthwise_weights/Initializer/truncated_normal/mul"
  op: "Mul"
  input: "FeatureExtractor/MobilenetV1/Conv2d_3_depthwise/depthwise_weights/Initializer/truncated_normal/TruncatedNormal"
  input: "FeatureExtractor/MobilenetV1/Conv2d_3_depthwise/depthwise_weights/Initializer/truncated_normal/stddev"
  attr {
    key: "T"
    value {
      type: DT_FLOAT
    }
  }
  attr {
    key: "_class"
    value {
      list {
        s: "loc:@FeatureExtractor/MobilenetV1/Conv2d_3_depthwise/depthwise_weights"
      }
    }
  }
}
node {
  name: "FeatureExtractor/MobilenetV1/Conv2d_3_depthwise/depthwise_weights/Initializer/truncated_normal"
  op: "Add"
  input: "FeatureExtractor/MobilenetV1/Conv2d_3_depthwise/depthwise_weights/Initializer/truncated_normal/mul"
  input: "FeatureExtractor/MobilenetV1/Conv2d_3_depthwise/depthwise_weights/Initializer/truncated_normal/mean"
  attr {
    key: "T"
    value {
      type: DT_FLOAT
    }
  }
  attr {
    key: "_class"
    value {
      list {
        s: "loc:@FeatureExtractor/MobilenetV1/Conv2d_3_depthwise/depthwise_weights"
      }
    }
  }
}
node {
  name: "FeatureExtractor/MobilenetV1/Conv2d_3_depthwise/depthwise_weights"
  op: "VariableV2"
  attr {
    key: "_class"
    value {
      list {
        s: "loc:@FeatureExtractor/MobilenetV1/Conv2d_3_depthwise/depthwise_weights"
      }
    }
  }
  attr {
    key: "container"
    value {
      s: ""
    }
  }
  attr {
    key: "dtype"
    value {
      type: DT_FLOAT
    }
  }
  attr {
    key: "shape"
    value {
      shape {
        dim {
          size: 3
        }
        dim {
          size: 3
        }
        dim {
          size: 128
        }
        dim {
          size: 1
        }
      }
    }
  }
  attr {
    key: "shared_name"
    value {
      s: ""
    }
  }
}
node {
  name: "FeatureExtractor/MobilenetV1/Conv2d_3_depthwise/depthwise_weights/Assign"
  op: "Assign"
  input: "FeatureExtractor/MobilenetV1/Conv2d_3_depthwise/depthwise_weights"
  input: "FeatureExtractor/MobilenetV1/Conv2d_3_depthwise/depthwise_weights/Initializer/truncated_normal"
  attr {
    key: "T"
    value {
      type: DT_FLOAT
    }
  }
  attr {
    key: "_class"
    value {
      list {
        s: "loc:@FeatureExtractor/MobilenetV1/Conv2d_3_depthwise/depthwise_weights"
      }
    }
  }
  attr {
    key: "use_locking"
    value {
      b: true
    }
  }
  attr {
    key: "validate_shape"
    value {
      b: true
    }
  }
}
node {
  name: "FeatureExtractor/MobilenetV1/Conv2d_3_depthwise/depthwise_weights/read"
  op: "Identity"
  input: "FeatureExtractor/MobilenetV1/Conv2d_3_depthwise/depthwise_weights"
  attr {
    key: "T"
    value {
      type: DT_FLOAT
    }
  }
  attr {
    key: "_class"
    value {
      list {
        s: "loc:@FeatureExtractor/MobilenetV1/Conv2d_3_depthwise/depthwise_weights"
      }
    }
  }
}
node {
  name: "FeatureExtractor/MobilenetV1/Conv2d_3_depthwise/depthwise_weights/Regularizer/l2_regularizer/scale"
  op: "Const"
  attr {
    key: "_class"
    value {
      list {
        s: "loc:@FeatureExtractor/MobilenetV1/Conv2d_3_depthwise/depthwise_weights"
      }
    }
  }
  attr {
    key: "dtype"
    value {
      type: DT_FLOAT
    }
  }
  attr {
    key: "value"
    value {
      tensor {
        dtype: DT_FLOAT
        tensor_shape {
        }
        float_val: 3.9999998989515007e-05
      }
    }
  }
}
node {
  name: "FeatureExtractor/MobilenetV1/Conv2d_3_depthwise/depthwise_weights/Regularizer/l2_regularizer/L2Loss"
  op: "L2Loss"
  input: "FeatureExtractor/MobilenetV1/Conv2d_3_depthwise/depthwise_weights/read"
  attr {
    key: "T"
    value {
      type: DT_FLOAT
    }
  }
  attr {
    key: "_class"
    value {
      list {
        s: "loc:@FeatureExtractor/MobilenetV1/Conv2d_3_depthwise/depthwise_weights"
      }
    }
  }
}
node {
  name: "FeatureExtractor/MobilenetV1/Conv2d_3_depthwise/depthwise_weights/Regularizer/l2_regularizer"
  op: "Mul"
  input: "FeatureExtractor/MobilenetV1/Conv2d_3_depthwise/depthwise_weights/Regularizer/l2_regularizer/scale"
  input: "FeatureExtractor/MobilenetV1/Conv2d_3_depthwise/depthwise_weights/Regularizer/l2_regularizer/L2Loss"
  attr {
    key: "T"
    value {
      type: DT_FLOAT
    }
  }
  attr {
    key: "_class"
    value {
      list {
        s: "loc:@FeatureExtractor/MobilenetV1/Conv2d_3_depthwise/depthwise_weights"
      }
    }
  }
}
node {
  name: "FeatureExtractor/MobilenetV1/MobilenetV1/Conv2d_3_depthwise/depthwise/Shape"
  op: "Const"
  attr {
    key: "dtype"
    value {
      type: DT_INT32
    }
  }
  attr {
    key: "value"
    value {
      tensor {
        dtype: DT_INT32
        tensor_shape {
          dim {
            size: 4
          }
        }
        tensor_content: "\003\000\000\000\003\000\000\000\200\000\000\000\001\000\000\000"
      }
    }
  }
}
node {
  name: "FeatureExtractor/MobilenetV1/MobilenetV1/Conv2d_3_depthwise/depthwise/dilation_rate"
  op: "Const"
  attr {
    key: "dtype"
    value {
      type: DT_INT32
    }
  }
  attr {
    key: "value"
    value {
      tensor {
        dtype: DT_INT32
        tensor_shape {
          dim {
            size: 2
          }
        }
        tensor_content: "\001\000\000\000\001\000\000\000"
      }
    }
  }
}
node {
  name: "FeatureExtractor/MobilenetV1/MobilenetV1/Conv2d_3_depthwise/depthwise"
  op: "DepthwiseConv2dNative"
  input: "FeatureExtractor/MobilenetV1/MobilenetV1/Conv2d_2_pointwise/Relu6"
  input: "FeatureExtractor/MobilenetV1/Conv2d_3_depthwise/depthwise_weights/read"
  attr {
    key: "T"
    value {
      type: DT_FLOAT
    }
  }
  attr {
    key: "data_format"
    value {
      s: "NHWC"
    }
  }
  attr {
    key: "dilations"
    value {
      list {
        i: 1
        i: 1
        i: 1
        i: 1
      }
    }
  }
  attr {
    key: "padding"
    value {
      s: "SAME"
    }
  }
  attr {
    key: "strides"
    value {
      list {
        i: 1
        i: 1
        i: 1
        i: 1
      }
    }
  }
}
node {
  name: "FeatureExtractor/MobilenetV1/Conv2d_3_depthwise/BatchNorm/gamma/Initializer/ones"
  op: "Const"
  attr {
    key: "_class"
    value {
      list {
        s: "loc:@FeatureExtractor/MobilenetV1/Conv2d_3_depthwise/BatchNorm/gamma"
      }
    }
  }
  attr {
    key: "dtype"
    value {
      type: DT_FLOAT
    }
  }
  attr {
    key: "value"
    value {
      tensor {
        dtype: DT_FLOAT
        tensor_shape {
          dim {
            size: 128
          }
        }
        float_val: 1.0
      }
    }
  }
}
node {
  name: "FeatureExtractor/MobilenetV1/Conv2d_3_depthwise/BatchNorm/gamma"
  op: "VariableV2"
  attr {
    key: "_class"
    value {
      list {
        s: "loc:@FeatureExtractor/MobilenetV1/Conv2d_3_depthwise/BatchNorm/gamma"
      }
    }
  }
  attr {
    key: "container"
    value {
      s: ""
    }
  }
  attr {
    key: "dtype"
    value {
      type: DT_FLOAT
    }
  }
  attr {
    key: "shape"
    value {
      shape {
        dim {
          size: 128
        }
      }
    }
  }
  attr {
    key: "shared_name"
    value {
      s: ""
    }
  }
}
node {
  name: "FeatureExtractor/MobilenetV1/Conv2d_3_depthwise/BatchNorm/gamma/Assign"
  op: "Assign"
  input: "FeatureExtractor/MobilenetV1/Conv2d_3_depthwise/BatchNorm/gamma"
  input: "FeatureExtractor/MobilenetV1/Conv2d_3_depthwise/BatchNorm/gamma/Initializer/ones"
  attr {
    key: "T"
    value {
      type: DT_FLOAT
    }
  }
  attr {
    key: "_class"
    value {
      list {
        s: "loc:@FeatureExtractor/MobilenetV1/Conv2d_3_depthwise/BatchNorm/gamma"
      }
    }
  }
  attr {
    key: "use_locking"
    value {
      b: true
    }
  }
  attr {
    key: "validate_shape"
    value {
      b: true
    }
  }
}
node {
  name: "FeatureExtractor/MobilenetV1/Conv2d_3_depthwise/BatchNorm/gamma/read"
  op: "Identity"
  input: "FeatureExtractor/MobilenetV1/Conv2d_3_depthwise/BatchNorm/gamma"
  attr {
    key: "T"
    value {
      type: DT_FLOAT
    }
  }
  attr {
    key: "_class"
    value {
      list {
        s: "loc:@FeatureExtractor/MobilenetV1/Conv2d_3_depthwise/BatchNorm/gamma"
      }
    }
  }
}
node {
  name: "FeatureExtractor/MobilenetV1/Conv2d_3_depthwise/BatchNorm/beta/Initializer/zeros"
  op: "Const"
  attr {
    key: "_class"
    value {
      list {
        s: "loc:@FeatureExtractor/MobilenetV1/Conv2d_3_depthwise/BatchNorm/beta"
      }
    }
  }
  attr {
    key: "dtype"
    value {
      type: DT_FLOAT
    }
  }
  attr {
    key: "value"
    value {
      tensor {
        dtype: DT_FLOAT
        tensor_shape {
          dim {
            size: 128
          }
        }
        float_val: 0.0
      }
    }
  }
}
node {
  name: "FeatureExtractor/MobilenetV1/Conv2d_3_depthwise/BatchNorm/beta"
  op: "VariableV2"
  attr {
    key: "_class"
    value {
      list {
        s: "loc:@FeatureExtractor/MobilenetV1/Conv2d_3_depthwise/BatchNorm/beta"
      }
    }
  }
  attr {
    key: "container"
    value {
      s: ""
    }
  }
  attr {
    key: "dtype"
    value {
      type: DT_FLOAT
    }
  }
  attr {
    key: "shape"
    value {
      shape {
        dim {
          size: 128
        }
      }
    }
  }
  attr {
    key: "shared_name"
    value {
      s: ""
    }
  }
}
node {
  name: "FeatureExtractor/MobilenetV1/Conv2d_3_depthwise/BatchNorm/beta/Assign"
  op: "Assign"
  input: "FeatureExtractor/MobilenetV1/Conv2d_3_depthwise/BatchNorm/beta"
  input: "FeatureExtractor/MobilenetV1/Conv2d_3_depthwise/BatchNorm/beta/Initializer/zeros"
  attr {
    key: "T"
    value {
      type: DT_FLOAT
    }
  }
  attr {
    key: "_class"
    value {
      list {
        s: "loc:@FeatureExtractor/MobilenetV1/Conv2d_3_depthwise/BatchNorm/beta"
      }
    }
  }
  attr {
    key: "use_locking"
    value {
      b: true
    }
  }
  attr {
    key: "validate_shape"
    value {
      b: true
    }
  }
}
node {
  name: "FeatureExtractor/MobilenetV1/Conv2d_3_depthwise/BatchNorm/beta/read"
  op: "Identity"
  input: "FeatureExtractor/MobilenetV1/Conv2d_3_depthwise/BatchNorm/beta"
  attr {
    key: "T"
    value {
      type: DT_FLOAT
    }
  }
  attr {
    key: "_class"
    value {
      list {
        s: "loc:@FeatureExtractor/MobilenetV1/Conv2d_3_depthwise/BatchNorm/beta"
      }
    }
  }
}
node {
  name: "FeatureExtractor/MobilenetV1/Conv2d_3_depthwise/BatchNorm/moving_mean/Initializer/zeros"
  op: "Const"
  attr {
    key: "_class"
    value {
      list {
        s: "loc:@FeatureExtractor/MobilenetV1/Conv2d_3_depthwise/BatchNorm/moving_mean"
      }
    }
  }
  attr {
    key: "dtype"
    value {
      type: DT_FLOAT
    }
  }
  attr {
    key: "value"
    value {
      tensor {
        dtype: DT_FLOAT
        tensor_shape {
          dim {
            size: 128
          }
        }
        float_val: 0.0
      }
    }
  }
}
node {
  name: "FeatureExtractor/MobilenetV1/Conv2d_3_depthwise/BatchNorm/moving_mean"
  op: "VariableV2"
  attr {
    key: "_class"
    value {
      list {
        s: "loc:@FeatureExtractor/MobilenetV1/Conv2d_3_depthwise/BatchNorm/moving_mean"
      }
    }
  }
  attr {
    key: "container"
    value {
      s: ""
    }
  }
  attr {
    key: "dtype"
    value {
      type: DT_FLOAT
    }
  }
  attr {
    key: "shape"
    value {
      shape {
        dim {
          size: 128
        }
      }
    }
  }
  attr {
    key: "shared_name"
    value {
      s: ""
    }
  }
}
node {
  name: "FeatureExtractor/MobilenetV1/Conv2d_3_depthwise/BatchNorm/moving_mean/Assign"
  op: "Assign"
  input: "FeatureExtractor/MobilenetV1/Conv2d_3_depthwise/BatchNorm/moving_mean"
  input: "FeatureExtractor/MobilenetV1/Conv2d_3_depthwise/BatchNorm/moving_mean/Initializer/zeros"
  attr {
    key: "T"
    value {
      type: DT_FLOAT
    }
  }
  attr {
    key: "_class"
    value {
      list {
        s: "loc:@FeatureExtractor/MobilenetV1/Conv2d_3_depthwise/BatchNorm/moving_mean"
      }
    }
  }
  attr {
    key: "use_locking"
    value {
      b: true
    }
  }
  attr {
    key: "validate_shape"
    value {
      b: true
    }
  }
}
node {
  name: "FeatureExtractor/MobilenetV1/Conv2d_3_depthwise/BatchNorm/moving_mean/read"
  op: "Identity"
  input: "FeatureExtractor/MobilenetV1/Conv2d_3_depthwise/BatchNorm/moving_mean"
  attr {
    key: "T"
    value {
      type: DT_FLOAT
    }
  }
  attr {
    key: "_class"
    value {
      list {
        s: "loc:@FeatureExtractor/MobilenetV1/Conv2d_3_depthwise/BatchNorm/moving_mean"
      }
    }
  }
}
node {
  name: "FeatureExtractor/MobilenetV1/Conv2d_3_depthwise/BatchNorm/moving_variance/Initializer/ones"
  op: "Const"
  attr {
    key: "_class"
    value {
      list {
        s: "loc:@FeatureExtractor/MobilenetV1/Conv2d_3_depthwise/BatchNorm/moving_variance"
      }
    }
  }
  attr {
    key: "dtype"
    value {
      type: DT_FLOAT
    }
  }
  attr {
    key: "value"
    value {
      tensor {
        dtype: DT_FLOAT
        tensor_shape {
          dim {
            size: 128
          }
        }
        float_val: 1.0
      }
    }
  }
}
node {
  name: "FeatureExtractor/MobilenetV1/Conv2d_3_depthwise/BatchNorm/moving_variance"
  op: "VariableV2"
  attr {
    key: "_class"
    value {
      list {
        s: "loc:@FeatureExtractor/MobilenetV1/Conv2d_3_depthwise/BatchNorm/moving_variance"
      }
    }
  }
  attr {
    key: "container"
    value {
      s: ""
    }
  }
  attr {
    key: "dtype"
    value {
      type: DT_FLOAT
    }
  }
  attr {
    key: "shape"
    value {
      shape {
        dim {
          size: 128
        }
      }
    }
  }
  attr {
    key: "shared_name"
    value {
      s: ""
    }
  }
}
node {
  name: "FeatureExtractor/MobilenetV1/Conv2d_3_depthwise/BatchNorm/moving_variance/Assign"
  op: "Assign"
  input: "FeatureExtractor/MobilenetV1/Conv2d_3_depthwise/BatchNorm/moving_variance"
  input: "FeatureExtractor/MobilenetV1/Conv2d_3_depthwise/BatchNorm/moving_variance/Initializer/ones"
  attr {
    key: "T"
    value {
      type: DT_FLOAT
    }
  }
  attr {
    key: "_class"
    value {
      list {
        s: "loc:@FeatureExtractor/MobilenetV1/Conv2d_3_depthwise/BatchNorm/moving_variance"
      }
    }
  }
  attr {
    key: "use_locking"
    value {
      b: true
    }
  }
  attr {
    key: "validate_shape"
    value {
      b: true
    }
  }
}
node {
  name: "FeatureExtractor/MobilenetV1/Conv2d_3_depthwise/BatchNorm/moving_variance/read"
  op: "Identity"
  input: "FeatureExtractor/MobilenetV1/Conv2d_3_depthwise/BatchNorm/moving_variance"
  attr {
    key: "T"
    value {
      type: DT_FLOAT
    }
  }
  attr {
    key: "_class"
    value {
      list {
        s: "loc:@FeatureExtractor/MobilenetV1/Conv2d_3_depthwise/BatchNorm/moving_variance"
      }
    }
  }
}
node {
  name: "FeatureExtractor/MobilenetV1/MobilenetV1/Conv2d_3_depthwise/BatchNorm/FusedBatchNorm"
  op: "FusedBatchNorm"
  input: "FeatureExtractor/MobilenetV1/MobilenetV1/Conv2d_3_depthwise/depthwise"
  input: "FeatureExtractor/MobilenetV1/Conv2d_3_depthwise/BatchNorm/gamma/read"
  input: "FeatureExtractor/MobilenetV1/Conv2d_3_depthwise/BatchNorm/beta/read"
  input: "FeatureExtractor/MobilenetV1/Conv2d_3_depthwise/BatchNorm/moving_mean/read"
  input: "FeatureExtractor/MobilenetV1/Conv2d_3_depthwise/BatchNorm/moving_variance/read"
  attr {
    key: "T"
    value {
      type: DT_FLOAT
    }
  }
  attr {
    key: "data_format"
    value {
      s: "NHWC"
    }
  }
  attr {
    key: "epsilon"
    value {
      f: 0.0010000000474974513
    }
  }
  attr {
    key: "is_training"
    value {
      b: false
    }
  }
}
node {
  name: "FeatureExtractor/MobilenetV1/MobilenetV1/Conv2d_3_depthwise/BatchNorm/Const"
  op: "Const"
  attr {
    key: "dtype"
    value {
      type: DT_FLOAT
    }
  }
  attr {
    key: "value"
    value {
      tensor {
        dtype: DT_FLOAT
        tensor_shape {
        }
        float_val: 0.9997000098228455
      }
    }
  }
}
node {
  name: "FeatureExtractor/MobilenetV1/MobilenetV1/Conv2d_3_depthwise/Relu6"
  op: "Relu6"
  input: "FeatureExtractor/MobilenetV1/MobilenetV1/Conv2d_3_depthwise/BatchNorm/FusedBatchNorm"
  attr {
    key: "T"
    value {
      type: DT_FLOAT
    }
  }
}
node {
  name: "FeatureExtractor/MobilenetV1/Conv2d_3_pointwise/weights/Initializer/truncated_normal/shape"
  op: "Const"
  attr {
    key: "_class"
    value {
      list {
        s: "loc:@FeatureExtractor/MobilenetV1/Conv2d_3_pointwise/weights"
      }
    }
  }
  attr {
    key: "dtype"
    value {
      type: DT_INT32
    }
  }
  attr {
    key: "value"
    value {
      tensor {
        dtype: DT_INT32
        tensor_shape {
          dim {
            size: 4
          }
        }
        tensor_content: "\001\000\000\000\001\000\000\000\200\000\000\000\200\000\000\000"
      }
    }
  }
}
node {
  name: "FeatureExtractor/MobilenetV1/Conv2d_3_pointwise/weights/Initializer/truncated_normal/mean"
  op: "Const"
  attr {
    key: "_class"
    value {
      list {
        s: "loc:@FeatureExtractor/MobilenetV1/Conv2d_3_pointwise/weights"
      }
    }
  }
  attr {
    key: "dtype"
    value {
      type: DT_FLOAT
    }
  }
  attr {
    key: "value"
    value {
      tensor {
        dtype: DT_FLOAT
        tensor_shape {
        }
        float_val: 0.0
      }
    }
  }
}
node {
  name: "FeatureExtractor/MobilenetV1/Conv2d_3_pointwise/weights/Initializer/truncated_normal/stddev"
  op: "Const"
  attr {
    key: "_class"
    value {
      list {
        s: "loc:@FeatureExtractor/MobilenetV1/Conv2d_3_pointwise/weights"
      }
    }
  }
  attr {
    key: "dtype"
    value {
      type: DT_FLOAT
    }
  }
  attr {
    key: "value"
    value {
      tensor {
        dtype: DT_FLOAT
        tensor_shape {
        }
        float_val: 0.09000000357627869
      }
    }
  }
}
node {
  name: "FeatureExtractor/MobilenetV1/Conv2d_3_pointwise/weights/Initializer/truncated_normal/TruncatedNormal"
  op: "TruncatedNormal"
  input: "FeatureExtractor/MobilenetV1/Conv2d_3_pointwise/weights/Initializer/truncated_normal/shape"
  attr {
    key: "T"
    value {
      type: DT_INT32
    }
  }
  attr {
    key: "_class"
    value {
      list {
        s: "loc:@FeatureExtractor/MobilenetV1/Conv2d_3_pointwise/weights"
      }
    }
  }
  attr {
    key: "dtype"
    value {
      type: DT_FLOAT
    }
  }
  attr {
    key: "seed"
    value {
      i: 0
    }
  }
  attr {
    key: "seed2"
    value {
      i: 0
    }
  }
}
node {
  name: "FeatureExtractor/MobilenetV1/Conv2d_3_pointwise/weights/Initializer/truncated_normal/mul"
  op: "Mul"
  input: "FeatureExtractor/MobilenetV1/Conv2d_3_pointwise/weights/Initializer/truncated_normal/TruncatedNormal"
  input: "FeatureExtractor/MobilenetV1/Conv2d_3_pointwise/weights/Initializer/truncated_normal/stddev"
  attr {
    key: "T"
    value {
      type: DT_FLOAT
    }
  }
  attr {
    key: "_class"
    value {
      list {
        s: "loc:@FeatureExtractor/MobilenetV1/Conv2d_3_pointwise/weights"
      }
    }
  }
}
node {
  name: "FeatureExtractor/MobilenetV1/Conv2d_3_pointwise/weights/Initializer/truncated_normal"
  op: "Add"
  input: "FeatureExtractor/MobilenetV1/Conv2d_3_pointwise/weights/Initializer/truncated_normal/mul"
  input: "FeatureExtractor/MobilenetV1/Conv2d_3_pointwise/weights/Initializer/truncated_normal/mean"
  attr {
    key: "T"
    value {
      type: DT_FLOAT
    }
  }
  attr {
    key: "_class"
    value {
      list {
        s: "loc:@FeatureExtractor/MobilenetV1/Conv2d_3_pointwise/weights"
      }
    }
  }
}
node {
  name: "FeatureExtractor/MobilenetV1/Conv2d_3_pointwise/weights"
  op: "VariableV2"
  attr {
    key: "_class"
    value {
      list {
        s: "loc:@FeatureExtractor/MobilenetV1/Conv2d_3_pointwise/weights"
      }
    }
  }
  attr {
    key: "container"
    value {
      s: ""
    }
  }
  attr {
    key: "dtype"
    value {
      type: DT_FLOAT
    }
  }
  attr {
    key: "shape"
    value {
      shape {
        dim {
          size: 1
        }
        dim {
          size: 1
        }
        dim {
          size: 128
        }
        dim {
          size: 128
        }
      }
    }
  }
  attr {
    key: "shared_name"
    value {
      s: ""
    }
  }
}
node {
  name: "FeatureExtractor/MobilenetV1/Conv2d_3_pointwise/weights/Assign"
  op: "Assign"
  input: "FeatureExtractor/MobilenetV1/Conv2d_3_pointwise/weights"
  input: "FeatureExtractor/MobilenetV1/Conv2d_3_pointwise/weights/Initializer/truncated_normal"
  attr {
    key: "T"
    value {
      type: DT_FLOAT
    }
  }
  attr {
    key: "_class"
    value {
      list {
        s: "loc:@FeatureExtractor/MobilenetV1/Conv2d_3_pointwise/weights"
      }
    }
  }
  attr {
    key: "use_locking"
    value {
      b: true
    }
  }
  attr {
    key: "validate_shape"
    value {
      b: true
    }
  }
}
node {
  name: "FeatureExtractor/MobilenetV1/Conv2d_3_pointwise/weights/read"
  op: "Identity"
  input: "FeatureExtractor/MobilenetV1/Conv2d_3_pointwise/weights"
  attr {
    key: "T"
    value {
      type: DT_FLOAT
    }
  }
  attr {
    key: "_class"
    value {
      list {
        s: "loc:@FeatureExtractor/MobilenetV1/Conv2d_3_pointwise/weights"
      }
    }
  }
}
node {
  name: "FeatureExtractor/MobilenetV1/MobilenetV1/Conv2d_3_pointwise/kernel/Regularizer/l2_regularizer/scale"
  op: "Const"
  attr {
    key: "dtype"
    value {
      type: DT_FLOAT
    }
  }
  attr {
    key: "value"
    value {
      tensor {
        dtype: DT_FLOAT
        tensor_shape {
        }
        float_val: 3.9999998989515007e-05
      }
    }
  }
}
node {
  name: "FeatureExtractor/MobilenetV1/MobilenetV1/Conv2d_3_pointwise/kernel/Regularizer/l2_regularizer/L2Loss"
  op: "L2Loss"
  input: "FeatureExtractor/MobilenetV1/Conv2d_3_pointwise/weights/read"
  attr {
    key: "T"
    value {
      type: DT_FLOAT
    }
  }
}
node {
  name: "FeatureExtractor/MobilenetV1/MobilenetV1/Conv2d_3_pointwise/kernel/Regularizer/l2_regularizer"
  op: "Mul"
  input: "FeatureExtractor/MobilenetV1/MobilenetV1/Conv2d_3_pointwise/kernel/Regularizer/l2_regularizer/scale"
  input: "FeatureExtractor/MobilenetV1/MobilenetV1/Conv2d_3_pointwise/kernel/Regularizer/l2_regularizer/L2Loss"
  attr {
    key: "T"
    value {
      type: DT_FLOAT
    }
  }
}
node {
  name: "FeatureExtractor/MobilenetV1/MobilenetV1/Conv2d_3_pointwise/dilation_rate"
  op: "Const"
  attr {
    key: "dtype"
    value {
      type: DT_INT32
    }
  }
  attr {
    key: "value"
    value {
      tensor {
        dtype: DT_INT32
        tensor_shape {
          dim {
            size: 2
          }
        }
        tensor_content: "\001\000\000\000\001\000\000\000"
      }
    }
  }
}
node {
  name: "FeatureExtractor/MobilenetV1/MobilenetV1/Conv2d_3_pointwise/Conv2D"
  op: "Conv2D"
  input: "FeatureExtractor/MobilenetV1/MobilenetV1/Conv2d_3_depthwise/Relu6"
  input: "FeatureExtractor/MobilenetV1/Conv2d_3_pointwise/weights/read"
  attr {
    key: "T"
    value {
      type: DT_FLOAT
    }
  }
  attr {
    key: "data_format"
    value {
      s: "NHWC"
    }
  }
  attr {
    key: "dilations"
    value {
      list {
        i: 1
        i: 1
        i: 1
        i: 1
      }
    }
  }
  attr {
    key: "padding"
    value {
      s: "SAME"
    }
  }
  attr {
    key: "strides"
    value {
      list {
        i: 1
        i: 1
        i: 1
        i: 1
      }
    }
  }
  attr {
    key: "use_cudnn_on_gpu"
    value {
      b: true
    }
  }
}
node {
  name: "FeatureExtractor/MobilenetV1/Conv2d_3_pointwise/BatchNorm/gamma/Initializer/ones"
  op: "Const"
  attr {
    key: "_class"
    value {
      list {
        s: "loc:@FeatureExtractor/MobilenetV1/Conv2d_3_pointwise/BatchNorm/gamma"
      }
    }
  }
  attr {
    key: "dtype"
    value {
      type: DT_FLOAT
    }
  }
  attr {
    key: "value"
    value {
      tensor {
        dtype: DT_FLOAT
        tensor_shape {
          dim {
            size: 128
          }
        }
        float_val: 1.0
      }
    }
  }
}
node {
  name: "FeatureExtractor/MobilenetV1/Conv2d_3_pointwise/BatchNorm/gamma"
  op: "VariableV2"
  attr {
    key: "_class"
    value {
      list {
        s: "loc:@FeatureExtractor/MobilenetV1/Conv2d_3_pointwise/BatchNorm/gamma"
      }
    }
  }
  attr {
    key: "container"
    value {
      s: ""
    }
  }
  attr {
    key: "dtype"
    value {
      type: DT_FLOAT
    }
  }
  attr {
    key: "shape"
    value {
      shape {
        dim {
          size: 128
        }
      }
    }
  }
  attr {
    key: "shared_name"
    value {
      s: ""
    }
  }
}
node {
  name: "FeatureExtractor/MobilenetV1/Conv2d_3_pointwise/BatchNorm/gamma/Assign"
  op: "Assign"
  input: "FeatureExtractor/MobilenetV1/Conv2d_3_pointwise/BatchNorm/gamma"
  input: "FeatureExtractor/MobilenetV1/Conv2d_3_pointwise/BatchNorm/gamma/Initializer/ones"
  attr {
    key: "T"
    value {
      type: DT_FLOAT
    }
  }
  attr {
    key: "_class"
    value {
      list {
        s: "loc:@FeatureExtractor/MobilenetV1/Conv2d_3_pointwise/BatchNorm/gamma"
      }
    }
  }
  attr {
    key: "use_locking"
    value {
      b: true
    }
  }
  attr {
    key: "validate_shape"
    value {
      b: true
    }
  }
}
node {
  name: "FeatureExtractor/MobilenetV1/Conv2d_3_pointwise/BatchNorm/gamma/read"
  op: "Identity"
  input: "FeatureExtractor/MobilenetV1/Conv2d_3_pointwise/BatchNorm/gamma"
  attr {
    key: "T"
    value {
      type: DT_FLOAT
    }
  }
  attr {
    key: "_class"
    value {
      list {
        s: "loc:@FeatureExtractor/MobilenetV1/Conv2d_3_pointwise/BatchNorm/gamma"
      }
    }
  }
}
node {
  name: "FeatureExtractor/MobilenetV1/Conv2d_3_pointwise/BatchNorm/beta/Initializer/zeros"
  op: "Const"
  attr {
    key: "_class"
    value {
      list {
        s: "loc:@FeatureExtractor/MobilenetV1/Conv2d_3_pointwise/BatchNorm/beta"
      }
    }
  }
  attr {
    key: "dtype"
    value {
      type: DT_FLOAT
    }
  }
  attr {
    key: "value"
    value {
      tensor {
        dtype: DT_FLOAT
        tensor_shape {
          dim {
            size: 128
          }
        }
        float_val: 0.0
      }
    }
  }
}
node {
  name: "FeatureExtractor/MobilenetV1/Conv2d_3_pointwise/BatchNorm/beta"
  op: "VariableV2"
  attr {
    key: "_class"
    value {
      list {
        s: "loc:@FeatureExtractor/MobilenetV1/Conv2d_3_pointwise/BatchNorm/beta"
      }
    }
  }
  attr {
    key: "container"
    value {
      s: ""
    }
  }
  attr {
    key: "dtype"
    value {
      type: DT_FLOAT
    }
  }
  attr {
    key: "shape"
    value {
      shape {
        dim {
          size: 128
        }
      }
    }
  }
  attr {
    key: "shared_name"
    value {
      s: ""
    }
  }
}
node {
  name: "FeatureExtractor/MobilenetV1/Conv2d_3_pointwise/BatchNorm/beta/Assign"
  op: "Assign"
  input: "FeatureExtractor/MobilenetV1/Conv2d_3_pointwise/BatchNorm/beta"
  input: "FeatureExtractor/MobilenetV1/Conv2d_3_pointwise/BatchNorm/beta/Initializer/zeros"
  attr {
    key: "T"
    value {
      type: DT_FLOAT
    }
  }
  attr {
    key: "_class"
    value {
      list {
        s: "loc:@FeatureExtractor/MobilenetV1/Conv2d_3_pointwise/BatchNorm/beta"
      }
    }
  }
  attr {
    key: "use_locking"
    value {
      b: true
    }
  }
  attr {
    key: "validate_shape"
    value {
      b: true
    }
  }
}
node {
  name: "FeatureExtractor/MobilenetV1/Conv2d_3_pointwise/BatchNorm/beta/read"
  op: "Identity"
  input: "FeatureExtractor/MobilenetV1/Conv2d_3_pointwise/BatchNorm/beta"
  attr {
    key: "T"
    value {
      type: DT_FLOAT
    }
  }
  attr {
    key: "_class"
    value {
      list {
…
        s: "loc:@FeatureExtractor/MobilenetV1/Conv2d_1_depthwise/depthwise_weights"
      }
    }
  }
  attr {
    key: "use_locking"
    value {
      b: true
    }
  }
  attr {
    key: "validate_shape"
    value {
      b: true
    }
  }
}
node {
  name: "save/Assign_114"
  op: "Assign"
  input: "FeatureExtractor/MobilenetV1/Conv2d_1_pointwise/BatchNorm/beta"
  input: "save/RestoreV2:114"
  attr {
    key: "T"
    value {
      type: DT_FLOAT
    }
  }
  attr {
    key: "_class"
    value {
      list {
        s: "loc:@FeatureExtractor/MobilenetV1/Conv2d_1_pointwise/BatchNorm/beta"
      }
    }
  }
  attr {
    key: "use_locking"
    value {
      b: true
    }
  }
  attr {
    key: "validate_shape"
    value {
      b: true
    }
  }
}
node {
  name: "save/Assign_115"
  op: "Assign"
  input: "FeatureExtractor/MobilenetV1/Conv2d_1_pointwise/BatchNorm/gamma"
  input: "save/RestoreV2:115"
  attr {
    key: "T"
    value {
      type: DT_FLOAT
    }
  }
  attr {
    key: "_class"
    value {
      list {
        s: "loc:@FeatureExtractor/MobilenetV1/Conv2d_1_pointwise/BatchNorm/gamma"
      }
    }
  }
  attr {
    key: "use_locking"
    value {
      b: true
    }
  }
  attr {
    key: "validate_shape"
    value {
      b: true
    }
  }
}
node {
  name: "save/Assign_116"
  op: "Assign"
  input: "FeatureExtractor/MobilenetV1/Conv2d_1_pointwise/BatchNorm/moving_mean"
  input: "save/RestoreV2:116"
  attr {
    key: "T"
    value {
      type: DT_FLOAT
    }
  }
  attr {
    key: "_class"
    value {
      list {
        s: "loc:@FeatureExtractor/MobilenetV1/Conv2d_1_pointwise/BatchNorm/moving_mean"
      }
    }
  }
  attr {
    key: "use_locking"
    value {
      b: true
    }
  }
  attr {
    key: "validate_shape"
    value {
      b: true
    }
  }
}
node {
  name: "save/Assign_117"
  op: "Assign"
  input: "FeatureExtractor/MobilenetV1/Conv2d_1_pointwise/BatchNorm/moving_variance"
  input: "save/RestoreV2:117"
  attr {
    key: "T"
    value {
      type: DT_FLOAT
    }
  }
  attr {
    key: "_class"
    value {
      list {
        s: "loc:@FeatureExtractor/MobilenetV1/Conv2d_1_pointwise/BatchNorm/moving_variance"
      }
    }
  }
  attr {
    key: "use_locking"
    value {
      b: true
    }
  }
  attr {
    key: "validate_shape"
    value {
      b: true
    }
  }
}
node {
  name: "save/Assign_118"
  op: "Assign"
  input: "FeatureExtractor/MobilenetV1/Conv2d_1_pointwise/weights"
  input: "save/RestoreV2:118"
  attr {
    key: "T"
    value {
      type: DT_FLOAT
    }
  }
  attr {
    key: "_class"
    value {
      list {
        s: "loc:@FeatureExtractor/MobilenetV1/Conv2d_1_pointwise/weights"
      }
    }
  }
  attr {
    key: "use_locking"
    value {
      b: true
    }
  }
  attr {
    key: "validate_shape"
    value {
      b: true
    }
  }
}
node {
  name: "save/Assign_119"
  op: "Assign"
  input: "FeatureExtractor/MobilenetV1/Conv2d_2_depthwise/BatchNorm/beta"
  input: "save/RestoreV2:119"
  attr {
    key: "T"
    value {
      type: DT_FLOAT
    }
  }
  attr {
    key: "_class"
    value {
      list {
        s: "loc:@FeatureExtractor/MobilenetV1/Conv2d_2_depthwise/BatchNorm/beta"
      }
    }
  }
  attr {
    key: "use_locking"
    value {
      b: true
    }
  }
  attr {
    key: "validate_shape"
    value {
      b: true
    }
  }
}
node {
  name: "save/Assign_120"
  op: "Assign"
  input: "FeatureExtractor/MobilenetV1/Conv2d_2_depthwise/BatchNorm/gamma"
  input: "save/RestoreV2:120"
  attr {
    key: "T"
    value {
      type: DT_FLOAT
    }
  }
  attr {
    key: "_class"
    value {
      list {
        s: "loc:@FeatureExtractor/MobilenetV1/Conv2d_2_depthwise/BatchNorm/gamma"
      }
    }
  }
  attr {
    key: "use_locking"
    value {
      b: true
    }
  }
  attr {
    key: "validate_shape"
    value {
      b: true
    }
  }
}
node {
  name: "save/Assign_121"
  op: "Assign"
  input: "FeatureExtractor/MobilenetV1/Conv2d_2_depthwise/BatchNorm/moving_mean"
  input: "save/RestoreV2:121"
  attr {
    key: "T"
    value {
      type: DT_FLOAT
    }
  }
  attr {
    key: "_class"
    value {
      list {
        s: "loc:@FeatureExtractor/MobilenetV1/Conv2d_2_depthwise/BatchNorm/moving_mean"
      }
    }
  }
  attr {
    key: "use_locking"
    value {
      b: true
    }
  }
  attr {
    key: "validate_shape"
    value {
      b: true
    }
  }
}
node {
  name: "save/Assign_122"
  op: "Assign"
  input: "FeatureExtractor/MobilenetV1/Conv2d_2_depthwise/BatchNorm/moving_variance"
  input: "save/RestoreV2:122"
  attr {
    key: "T"
    value {
      type: DT_FLOAT
    }
  }
  attr {
    key: "_class"
    value {
      list {
        s: "loc:@FeatureExtractor/MobilenetV1/Conv2d_2_depthwise/BatchNorm/moving_variance"
      }
    }
  }
  attr {
    key: "use_locking"
    value {
      b: true
    }
  }
  attr {
    key: "validate_shape"
    value {
      b: true
    }
  }
}
node {
  name: "save/Assign_123"
  op: "Assign"
  input: "FeatureExtractor/MobilenetV1/Conv2d_2_depthwise/depthwise_weights"
  input: "save/RestoreV2:123"
  attr {
    key: "T"
    value {
      type: DT_FLOAT
    }
  }
  attr {
    key: "_class"
    value {
      list {
        s: "loc:@FeatureExtractor/MobilenetV1/Conv2d_2_depthwise/depthwise_weights"
      }
    }
  }
  attr {
    key: "use_locking"
    value {
      b: true
    }
  }
  attr {
    key: "validate_shape"
    value {
      b: true
    }
  }
}
node {
  name: "save/Assign_124"
  op: "Assign"
  input: "FeatureExtractor/MobilenetV1/Conv2d_2_pointwise/BatchNorm/beta"
  input: "save/RestoreV2:124"
  attr {
    key: "T"
    value {
      type: DT_FLOAT
    }
  }
  attr {
    key: "_class"
    value {
      list {
        s: "loc:@FeatureExtractor/MobilenetV1/Conv2d_2_pointwise/BatchNorm/beta"
      }
    }
  }
  attr {
    key: "use_locking"
    value {
      b: true
    }
  }
  attr {
    key: "validate_shape"
    value {
      b: true
    }
  }
}
node {
  name: "save/Assign_125"
  op: "Assign"
  input: "FeatureExtractor/MobilenetV1/Conv2d_2_pointwise/BatchNorm/gamma"
  input: "save/RestoreV2:125"
  attr {
    key: "T"
    value {
      type: DT_FLOAT
    }
  }
  attr {
    key: "_class"
    value {
      list {
        s: "loc:@FeatureExtractor/MobilenetV1/Conv2d_2_pointwise/BatchNorm/gamma"
      }
    }
  }
  attr {
    key: "use_locking"
    value {
      b: true
    }
  }
  attr {
    key: "validate_shape"
    value {
      b: true
    }
  }
}
node {
  name: "save/Assign_126"
  op: "Assign"
  input: "FeatureExtractor/MobilenetV1/Conv2d_2_pointwise/BatchNorm/moving_mean"
  input: "save/RestoreV2:126"
  attr {
    key: "T"
    value {
      type: DT_FLOAT
    }
  }
  attr {
    key: "_class"
    value {
      list {
        s: "loc:@FeatureExtractor/MobilenetV1/Conv2d_2_pointwise/BatchNorm/moving_mean"
      }
    }
  }
  attr {
    key: "use_locking"
    value {
      b: true
    }
  }
  attr {
    key: "validate_shape"
    value {
      b: true
    }
  }
}
node {
  name: "save/Assign_127"
  op: "Assign"
  input: "FeatureExtractor/MobilenetV1/Conv2d_2_pointwise/BatchNorm/moving_variance"
  input: "save/RestoreV2:127"
  attr {
    key: "T"
    value {
      type: DT_FLOAT
    }
  }
  attr {
    key: "_class"
    value {
      list {
        s: "loc:@FeatureExtractor/MobilenetV1/Conv2d_2_pointwise/BatchNorm/moving_variance"
      }
    }
  }
  attr {
    key: "use_locking"
    value {
      b: true
    }
  }
  attr {
    key: "validate_shape"
    value {
      b: true
    }
  }
}
node {
  name: "save/Assign_128"
  op: "Assign"
  input: "FeatureExtractor/MobilenetV1/Conv2d_2_pointwise/weights"
  input: "save/RestoreV2:128"
  attr {
    key: "T"
    value {
      type: DT_FLOAT
    }
  }
  attr {
    key: "_class"
    value {
      list {
        s: "loc:@FeatureExtractor/MobilenetV1/Conv2d_2_pointwise/weights"
      }
    }
  }
  attr {
    key: "use_locking"
    value {
      b: true
    }
  }
  attr {
    key: "validate_shape"
    value {
      b: true
    }
  }
}
node {
  name: "save/Assign_129"
  op: "Assign"
  input: "FeatureExtractor/MobilenetV1/Conv2d_3_depthwise/BatchNorm/beta"
  input: "save/RestoreV2:129"
  attr {
    key: "T"
    value {
      type: DT_FLOAT
    }
  }
  attr {
    key: "_class"
    value {
      list {
        s: "loc:@FeatureExtractor/MobilenetV1/Conv2d_3_depthwise/BatchNorm/beta"
      }
    }
  }
  attr {
    key: "use_locking"
    value {
      b: true
    }
  }
  attr {
    key: "validate_shape"
    value {
      b: true
    }
  }
}
node {
  name: "save/Assign_130"
  op: "Assign"
  input: "FeatureExtractor/MobilenetV1/Conv2d_3_depthwise/BatchNorm/gamma"
  input: "save/RestoreV2:130"
  attr {
    key: "T"
    value {
      type: DT_FLOAT
    }
  }
  attr {
    key: "_class"
    value {
      list {
        s: "loc:@FeatureExtractor/MobilenetV1/Conv2d_3_depthwise/BatchNorm/gamma"
      }
    }
  }
  attr {
    key: "use_locking"
    value {
      b: true
    }
  }
  attr {
    key: "validate_shape"
    value {
      b: true
    }
  }
}
node {
  name: "save/Assign_131"
  op: "Assign"
  input: "FeatureExtractor/MobilenetV1/Conv2d_3_depthwise/BatchNorm/moving_mean"
  input: "save/RestoreV2:131"
  attr {
    key: "T"
    value {
      type: DT_FLOAT
    }
  }
  attr {
    key: "_class"
    value {
      list {
        s: "loc:@FeatureExtractor/MobilenetV1/Conv2d_3_depthwise/BatchNorm/moving_mean"
      }
    }
  }
  attr {
    key: "use_locking"
    value {
      b: true
    }
  }
  attr {
    key: "validate_shape"
    value {
      b: true
    }
  }
}
node {
  name: "save/Assign_132"
  op: "Assign"
  input: "FeatureExtractor/MobilenetV1/Conv2d_3_depthwise/BatchNorm/moving_variance"
  input: "save/RestoreV2:132"
  attr {
    key: "T"
    value {
      type: DT_FLOAT
    }
  }
  attr {
    key: "_class"
    value {
      list {
        s: "loc:@FeatureExtractor/MobilenetV1/Conv2d_3_depthwise/BatchNorm/moving_variance"
      }
    }
  }
  attr {
    key: "use_locking"
    value {
      b: true
    }
  }
  attr {
    key: "validate_shape"
    value {
      b: true
    }
  }
}
node {
  name: "save/Assign_133"
  op: "Assign"
  input: "FeatureExtractor/MobilenetV1/Conv2d_3_depthwise/depthwise_weights"
  input: "save/RestoreV2:133"
  attr {
    key: "T"
    value {
      type: DT_FLOAT
    }
  }
  attr {
    key: "_class"
    value {
      list {
        s: "loc:@FeatureExtractor/MobilenetV1/Conv2d_3_depthwise/depthwise_weights"
      }
    }
  }
  attr {
    key: "use_locking"
    value {
      b: true
    }
  }
  attr {
    key: "validate_shape"
    value {
      b: true
    }
  }
}
node {
  name: "save/Assign_134"
  op: "Assign"
  input: "FeatureExtractor/MobilenetV1/Conv2d_3_pointwise/BatchNorm/beta"
  input: "save/RestoreV2:134"
  attr {
    key: "T"
    value {
      type: DT_FLOAT
    }
  }
  attr {
    key: "_class"
    value {
      list {
        s: "loc:@FeatureExtractor/MobilenetV1/Conv2d_3_pointwise/BatchNorm/beta"
      }
    }
  }
  attr {
    key: "use_locking"
    value {
      b: true
    }
  }
  attr {
    key: "validate_shape"
    value {
      b: true
    }
  }
}
node {
  name: "save/Assign_135"
  op: "Assign"
  input: "FeatureExtractor/MobilenetV1/Conv2d_3_pointwise/BatchNorm/gamma"
  input: "save/RestoreV2:135"
  attr {
    key: "T"
    value {
      type: DT_FLOAT
    }
  }
  attr {
    key: "_class"
    value {
      list {
        s: "loc:@FeatureExtractor/MobilenetV1/Conv2d_3_pointwise/BatchNorm/gamma"
      }
    }
  }
  attr {
    key: "use_locking"
    value {
      b: true
    }
  }
  attr {
    key: "validate_shape"
    value {
      b: true
    }
  }
}
node {
  name: "save/Assign_136"
  op: "Assign"
  input: "FeatureExtractor/MobilenetV1/Conv2d_3_pointwise/BatchNorm/moving_mean"
  input: "save/RestoreV2:136"
  attr {
    key: "T"
    value {
      type: DT_FLOAT
    }
  }
  attr {
    key: "_class"
    value {
      list {
        s: "loc:@FeatureExtractor/MobilenetV1/Conv2d_3_pointwise/BatchNorm/moving_mean"
      }
    }
  }
  attr {
    key: "use_locking"
    value {
      b: true
    }
  }
  attr {
    key: "validate_shape"
    value {
      b: true
    }
  }
}
node {
  name: "save/Assign_137"
  op: "Assign"
  input: "FeatureExtractor/MobilenetV1/Conv2d_3_pointwise/BatchNorm/moving_variance"
  input: "save/RestoreV2:137"
  attr {
    key: "T"
    value {
      type: DT_FLOAT
    }
  }
  attr {
    key: "_class"
    value {
      list {
        s: "loc:@FeatureExtractor/MobilenetV1/Conv2d_3_pointwise/BatchNorm/moving_variance"
      }
    }
  }
  attr {
    key: "use_locking"
    value {
      b: true
    }
  }
  attr {
    key: "validate_shape"
    value {
      b: true
    }
  }
}
node {
  name: "save/Assign_138"
  op: "Assign"
  input: "FeatureExtractor/MobilenetV1/Conv2d_3_pointwise/weights"
  input: "save/RestoreV2:138"
  attr {
    key: "T"
    value {
      type: DT_FLOAT
    }
  }
  attr {
    key: "_class"
    value {
      list {
        s: "loc:@FeatureExtractor/MobilenetV1/Conv2d_3_pointwise/weights"
      }
    }
  }
  attr {
    key: "use_locking"
    value {
      b: true
    }
  }
  attr {
    key: "validate_shape"
    value {
      b: true
    }
  }
}
node {
  name: "save/Assign_139"
  op: "Assign"
  input: "FeatureExtractor/MobilenetV1/Conv2d_4_depthwise/BatchNorm/beta"
  input: "save/RestoreV2:139"
  attr {
    key: "T"
    value {
      type: DT_FLOAT
    }
  }
  attr {
    key: "_class"
    value {
      list {
        s: "loc:@FeatureExtractor/MobilenetV1/Conv2d_4_depthwise/BatchNorm/beta"
      }
    }
  }
  attr {
    key: "use_locking"
    value {
      b: true
    }
  }
  attr {
    key: "validate_shape"
    value {
      b: true
    }
  }
}
node {
  name: "save/Assign_140"
  op: "Assign"
  input: "FeatureExtractor/MobilenetV1/Conv2d_4_depthwise/BatchNorm/gamma"
  input: "save/RestoreV2:140"
  attr {
    key: "T"
    value {
      type: DT_FLOAT
    }
  }
  attr {
    key: "_class"
    value {
      list {
        s: "loc:@FeatureExtractor/MobilenetV1/Conv2d_4_depthwise/BatchNorm/gamma"
      }
    }
  }
  attr {
    key: "use_locking"
    value {
      b: true
    }
  }
  attr {
    key: "validate_shape"
    value {
      b: true
    }
  }
}
node {
  name: "save/Assign_141"
  op: "Assign"
  input: "FeatureExtractor/MobilenetV1/Conv2d_4_depthwise/BatchNorm/moving_mean"
  input: "save/RestoreV2:141"
  attr {
    key: "T"
    value {
      type: DT_FLOAT
    }
  }
  attr {
    key: "_class"
    value {
      list {
        s: "loc:@FeatureExtractor/MobilenetV1/Conv2d_4_depthwise/BatchNorm/moving_mean"
      }
    }
  }
  attr {
    key: "use_locking"
    value {
      b: true
    }
  }
  attr {
    key: "validate_shape"
    value {
      b: true
    }
  }
}
node {
  name: "save/Assign_142"
  op: "Assign"
  input: "FeatureExtractor/MobilenetV1/Conv2d_4_depthwise/BatchNorm/moving_variance"
  input: "save/RestoreV2:142"
  attr {
    key: "T"
    value {
      type: DT_FLOAT
    }
  }
  attr {
    key: "_class"
    value {
      list {
        s: "loc:@FeatureExtractor/MobilenetV1/Conv2d_4_depthwise/BatchNorm/moving_variance"
      }
    }
  }
  attr {
    key: "use_locking"
    value {
      b: true
    }
  }
  attr {
    key: "validate_shape"
    value {
      b: true
    }
  }
}
node {
  name: "save/Assign_143"
  op: "Assign"
  input: "FeatureExtractor/MobilenetV1/Conv2d_4_depthwise/depthwise_weights"
  input: "save/RestoreV2:143"
  attr {
    key: "T"
    value {
      type: DT_FLOAT
    }
  }
  attr {
    key: "_class"
    value {
      list {
        s: "loc:@FeatureExtractor/MobilenetV1/Conv2d_4_depthwise/depthwise_weights"
      }
    }
  }
  attr {
    key: "use_locking"
    value {
      b: true
    }
  }
  attr {
    key: "validate_shape"
    value {
      b: true
    }
  }
}
node {
  name: "save/Assign_144"
  op: "Assign"
  input: "FeatureExtractor/MobilenetV1/Conv2d_4_pointwise/BatchNorm/beta"
  input: "save/RestoreV2:144"
  attr {
    key: "T"
    value {
      type: DT_FLOAT
    }
  }
  attr {
    key: "_class"
    value {
      list {
        s: "loc:@FeatureExtractor/MobilenetV1/Conv2d_4_pointwise/BatchNorm/beta"
      }
    }
  }
  attr {
    key: "use_locking"
    value {
      b: true
    }
  }
  attr {
    key: "validate_shape"
    value {
      b: true
    }
  }
}
node {
  name: "save/Assign_145"
  op: "Assign"
  input: "FeatureExtractor/MobilenetV1/Conv2d_4_pointwise/BatchNorm/gamma"
  input: "save/RestoreV2:145"
  attr {
    key: "T"
    value {
      type: DT_FLOAT
    }
  }
  attr {
    key: "_class"
    value {
      list {
        s: "loc:@FeatureExtractor/MobilenetV1/Conv2d_4_pointwise/BatchNorm/gamma"
      }
    }
  }
  attr {
    key: "use_locking"
    value {
      b: true
    }
  }
  attr {
    key: "validate_shape"
    value {
      b: true
    }
  }
}
node {
  name: "save/Assign_146"
  op: "Assign"
  input: "FeatureExtractor/MobilenetV1/Conv2d_4_pointwise/BatchNorm/moving_mean"
  input: "save/RestoreV2:146"
  attr {
    key: "T"
    value {
      type: DT_FLOAT
    }
  }
  attr {
    key: "_class"
    value {
      list {
        s: "loc:@FeatureExtractor/MobilenetV1/Conv2d_4_pointwise/BatchNorm/moving_mean"
      }
    }
  }
  attr {
    key: "use_locking"
    value {
      b: true
    }
  }
  attr {
    key: "validate_shape"
    value {
      b: true
    }
  }
}
node {
  name: "save/Assign_147"
  op: "Assign"
  input: "FeatureExtractor/MobilenetV1/Conv2d_4_pointwise/BatchNorm/moving_variance"
  input: "save/RestoreV2:147"
  attr {
    key: "T"
    value {
      type: DT_FLOAT
    }
  }
  attr {
    key: "_class"
    value {
      list {
        s: "loc:@FeatureExtractor/MobilenetV1/Conv2d_4_pointwise/BatchNorm/moving_variance"
      }
    }
  }
  attr {
    key: "use_locking"
    value {
      b: true
    }
  }
  attr {
    key: "validate_shape"
    value {
      b: true
    }
  }
}
node {
  name: "save/Assign_148"
  op: "Assign"
  input: "FeatureExtractor/MobilenetV1/Conv2d_4_pointwise/weights"
  input: "save/RestoreV2:148"
  attr {
    key: "T"
    value {
      type: DT_FLOAT
    }
  }
  attr {
    key: "_class"
    value {
      list {
        s: "loc:@FeatureExtractor/MobilenetV1/Conv2d_4_pointwise/weights"
      }
    }
  }
  attr {
    key: "use_locking"
    value {
      b: true
    }
  }
  attr {
    key: "validate_shape"
    value {
      b: true
    }
  }
}
node {
  name: "save/Assign_149"
  op: "Assign"
  input: "FeatureExtractor/MobilenetV1/Conv2d_5_depthwise/BatchNorm/beta"
  input: "save/RestoreV2:149"
  attr {
    key: "T"
    value {
      type: DT_FLOAT
    }
  }
  attr {
    key: "_class"
    value {
      list {
        s: "loc:@FeatureExtractor/MobilenetV1/Conv2d_5_depthwise/BatchNorm/beta"
      }
    }
  }
  attr {
    key: "use_locking"
    value {
      b: true
    }
  }
  attr {
    key: "validate_shape"
    value {
      b: true
    }
  }
}
node {
  name: "save/Assign_150"
  op: "Assign"
  input: "FeatureExtractor/MobilenetV1/Conv2d_5_depthwise/BatchNorm/gamma"
  input: "save/RestoreV2:150"
  attr {
    key: "T"
    value {
      type: DT_FLOAT
    }
  }
  attr {
    key: "_class"
    value {
      list {
        s: "loc:@FeatureExtractor/MobilenetV1/Conv2d_5_depthwise/BatchNorm/gamma"
      }
    }
  }
  attr {
    key: "use_locking"
    value {
      b: true
    }
  }
  attr {
    key: "validate_shape"
    value {
      b: true
    }
  }
}
node {
  name: "save/Assign_151"
  op: "Assign"
  input: "FeatureExtractor/MobilenetV1/Conv2d_5_depthwise/BatchNorm/moving_mean"
  input: "save/RestoreV2:151"
  attr {
    key: "T"
    value {
      type: DT_FLOAT
    }
  }
  attr {
    key: "_class"
    value {
      list {
        s: "loc:@FeatureExtractor/MobilenetV1/Conv2d_5_depthwise/BatchNorm/moving_mean"
      }
    }
  }
  attr {
    key: "use_locking"
    value {
      b: true
    }
  }
  attr {
    key: "validate_shape"
    value {
      b: true
    }
  }
}
node {
  name: "save/Assign_152"
  op: "Assign"
  input: "FeatureExtractor/MobilenetV1/Conv2d_5_depthwise/BatchNorm/moving_variance"
  input: "save/RestoreV2:152"
  attr {
    key: "T"
    value {
      type: DT_FLOAT
    }
  }
  attr {
    key: "_class"
    value {
      list {
        s: "loc:@FeatureExtractor/MobilenetV1/Conv2d_5_depthwise/BatchNorm/moving_variance"
      }
    }
  }
  attr {
    key: "use_locking"
    value {
      b: true
    }
  }
  attr {
    key: "validate_shape"
    value {
      b: true
    }
  }
}
node {
  name: "save/Assign_153"
  op: "Assign"
  input: "FeatureExtractor/MobilenetV1/Conv2d_5_depthwise/depthwise_weights"
  input: "save/RestoreV2:153"
  attr {
    key: "T"
    value {
      type: DT_FLOAT
    }
  }
  attr {
    key: "_class"
    value {
      list {
        s: "loc:@FeatureExtractor/MobilenetV1/Conv2d_5_depthwise/depthwise_weights"
      }
    }
  }
  attr {
    key: "use_locking"
    value {
      b: true
    }
  }
  attr {
    key: "validate_shape"
    value {
      b: true
    }
  }
}
node {
  name: "save/Assign_154"
  op: "Assign"
  input: "FeatureExtractor/MobilenetV1/Conv2d_5_pointwise/BatchNorm/beta"
  input: "save/RestoreV2:154"
  attr {
    key: "T"
    value {
      type: DT_FLOAT
    }
  }
  attr {
    key: "_class"
    value {
      list {
        s: "loc:@FeatureExtractor/MobilenetV1/Conv2d_5_pointwise/BatchNorm/beta"
      }
    }
  }
  attr {
    key: "use_locking"
    value {
      b: true
    }
  }
  attr {
    key: "validate_shape"
    value {
      b: true
    }
  }
}
node {
  name: "save/Assign_155"
  op: "Assign"
  input: "FeatureExtractor/MobilenetV1/Conv2d_5_pointwise/BatchNorm/gamma"
  input: "save/RestoreV2:155"
  attr {
    key: "T"
    value {
      type: DT_FLOAT
    }
  }
  attr {
    key: "_class"
    value {
      list {
        s: "loc:@FeatureExtractor/MobilenetV1/Conv2d_5_pointwise/BatchNorm/gamma"
      }
    }
  }
  attr {
    key: "use_locking"
    value {
      b: true
    }
  }
  attr {
    key: "validate_shape"
    value {
      b: true
    }
  }
}
node {
  name: "save/Assign_156"
  op: "Assign"
  input: "FeatureExtractor/MobilenetV1/Conv2d_5_pointwise/BatchNorm/moving_mean"
  input: "save/RestoreV2:156"
  attr {
    key: "T"
    value {
      type: DT_FLOAT
    }
  }
  attr {
    key: "_class"
    value {
      list {
        s: "loc:@FeatureExtractor/MobilenetV1/Conv2d_5_pointwise/BatchNorm/moving_mean"
      }
    }
  }
  attr {
    key: "use_locking"
    value {
      b: true
    }
  }
  attr {
    key: "validate_shape"
    value {
      b: true
    }
  }
}
node {
  name: "save/Assign_157"
  op: "Assign"
  input: "FeatureExtractor/MobilenetV1/Conv2d_5_pointwise/BatchNorm/moving_variance"
  input: "save/RestoreV2:157"
  attr {
    key: "T"
    value {
      type: DT_FLOAT
    }
  }
  attr {
    key: "_class"
    value {
      list {
        s: "loc:@FeatureExtractor/MobilenetV1/Conv2d_5_pointwise/BatchNorm/moving_variance"
      }
    }
  }
  attr {
    key: "use_locking"
    value {
      b: true
    }
  }
  attr {
    key: "validate_shape"
    value {
      b: true
    }
  }
}
node {
  name: "save/Assign_158"
  op: "Assign"
  input: "FeatureExtractor/MobilenetV1/Conv2d_5_pointwise/weights"
  input: "save/RestoreV2:158"
  attr {
    key: "T"
    value {
      type: DT_FLOAT
    }
  }
  attr {
    key: "_class"
    value {
      list {
        s: "loc:@FeatureExtractor/MobilenetV1/Conv2d_5_pointwise/weights"
      }
    }
  }
  attr {
    key: "use_locking"
    value {
      b: true
    }
  }
  attr {
    key: "validate_shape"
    value {
      b: true
    }
  }
}
node {
  name: "save/Assign_159"
  op: "Assign"
  input: "FeatureExtractor/MobilenetV1/Conv2d_6_depthwise/BatchNorm/beta"
  input: "save/RestoreV2:159"
  attr {
    key: "T"
    value {
      type: DT_FLOAT
    }
  }
  attr {
    key: "_class"
    value {
      list {
        s: "loc:@FeatureExtractor/MobilenetV1/Conv2d_6_depthwise/BatchNorm/beta"
      }
    }
  }
  attr {
    key: "use_locking"
    value {
      b: true
    }
  }
  attr {
    key: "validate_shape"
    value {
      b: true
    }
  }
}
node {
  name: "save/Assign_160"
  op: "Assign"
  input: "FeatureExtractor/MobilenetV1/Conv2d_6_depthwise/BatchNorm/gamma"
  input: "save/RestoreV2:160"
  attr {
    key: "T"
    value {
      type: DT_FLOAT
    }
  }
  attr {
    key: "_class"
    value {
      list {
        s: "loc:@FeatureExtractor/MobilenetV1/Conv2d_6_depthwise/BatchNorm/gamma"
      }
    }
  }
  attr {
    key: "use_locking"
    value {
      b: true
    }
  }
  attr {
    key: "validate_shape"
    value {
      b: true
    }
  }
}
node {
  name: "save/Assign_161"
  op: "Assign"
  input: "FeatureExtractor/MobilenetV1/Conv2d_6_depthwise/BatchNorm/moving_mean"
  input: "save/RestoreV2:161"
  attr {
    key: "T"
    value {
      type: DT_FLOAT
    }
  }
  attr {
    key: "_class"
    value {
      list {
        s: "loc:@FeatureExtractor/MobilenetV1/Conv2d_6_depthwise/BatchNorm/moving_mean"
      }
    }
  }
  attr {
    key: "use_locking"
    value {
      b: true
    }
  }
  attr {
    key: "validate_shape"
    value {
      b: true
    }
  }
}
node {
  name: "save/Assign_162"
  op: "Assign"
  input: "FeatureExtractor/MobilenetV1/Conv2d_6_depthwise/BatchNorm/moving_variance"
  input: "save/RestoreV2:162"
  attr {
    key: "T"
    value {
      type: DT_FLOAT
    }
  }
  attr {
    key: "_class"
    value {
      list {
        s: "loc:@FeatureExtractor/MobilenetV1/Conv2d_6_depthwise/BatchNorm/moving_variance"
      }
    }
  }
  attr {
    key: "use_locking"
    value {
      b: true
    }
  }
  attr {
    key: "validate_shape"
    value {
      b: true
    }
  }
}
node {
  name: "save/Assign_163"
  op: "Assign"
  input: "FeatureExtractor/MobilenetV1/Conv2d_6_depthwise/depthwise_weights"
  input: "save/RestoreV2:163"
  attr {
    key: "T"
    value {
      type: DT_FLOAT
    }
  }
  attr {
    key: "_class"
    value {
      list {
        s: "loc:@FeatureExtractor/MobilenetV1/Conv2d_6_depthwise/depthwise_weights"
      }
    }
  }
  attr {
    key: "use_locking"
    value {
      b: true
    }
  }
  attr {
    key: "validate_shape"
    value {
      b: true
    }
  }
}
node {
  name: "save/Assign_164"
  op: "Assign"
  input: "FeatureExtractor/MobilenetV1/Conv2d_6_pointwise/BatchNorm/beta"
  input: "save/RestoreV2:164"
  attr {
    key: "T"
    value {
      type: DT_FLOAT
    }
  }
  attr {
    key: "_class"
    value {
      list {
        s: "loc:@FeatureExtractor/MobilenetV1/Conv2d_6_pointwise/BatchNorm/beta"
      }
    }
  }
  attr {
    key: "use_locking"
    value {
      b: true
    }
  }
  attr {
    key: "validate_shape"
    value {
      b: true
    }
  }
}
node {
  name: "save/Assign_165"
  op: "Assign"
  input: "FeatureExtractor/MobilenetV1/Conv2d_6_pointwise/BatchNorm/gamma"
  input: "save/RestoreV2:165"
  attr {
    key: "T"
    value {
      type: DT_FLOAT
    }
  }
  attr {
    key: "_class"
    value {
      list {
        s: "loc:@FeatureExtractor/MobilenetV1/Conv2d_6_pointwise/BatchNorm/gamma"
      }
    }
  }
  attr {
    key: "use_locking"
    value {
      b: true
    }
  }
  attr {
    key: "validate_shape"
    value {
      b: true
    }
  }
}
node {
  name: "save/Assign_166"
  op: "Assign"
  input: "FeatureExtractor/MobilenetV1/Conv2d_6_pointwise/BatchNorm/moving_mean"
  input: "save/RestoreV2:166"
  attr {
    key: "T"
    value {
      type: DT_FLOAT
    }
  }
  attr {
    key: "_class"
    value {
      list {
        s: "loc:@FeatureExtractor/MobilenetV1/Conv2d_6_pointwise/BatchNorm/moving_mean"
      }
    }
  }
  attr {
    key: "use_locking"
    value {
      b: true
    }
  }
  attr {
    key: "validate_shape"
    value {
      b: true
    }
  }
}
node {
  name: "save/Assign_167"
  op: "Assign"
  input: "FeatureExtractor/MobilenetV1/Conv2d_6_pointwise/BatchNorm/moving_variance"
  input: "save/RestoreV2:167"
  attr {
    key: "T"
    value {
      type: DT_FLOAT
    }
  }
  attr {
    key: "_class"
    value {
      list {
        s: "loc:@FeatureExtractor/MobilenetV1/Conv2d_6_pointwise/BatchNorm/moving_variance"
      }
    }
  }
  attr {
    key: "use_locking"
    value {
      b: true
    }
  }
  attr {
    key: "validate_shape"
    value {
      b: true
    }
  }
}
node {
  name: "save/Assign_168"
  op: "Assign"
  input: "FeatureExtractor/MobilenetV1/Conv2d_6_pointwise/weights"
  input: "save/RestoreV2:168"
  attr {
    key: "T"
    value {
      type: DT_FLOAT
    }
  }
  attr {
    key: "_class"
    value {
      list {
        s: "loc:@FeatureExtractor/MobilenetV1/Conv2d_6_pointwise/weights"
      }
    }
  }
  attr {
    key: "use_locking"
    value {
      b: true
    }
  }
  attr {
    key: "validate_shape"
    value {
      b: true
    }
  }
}
node {
  name: "save/Assign_169"
  op: "Assign"
  input: "FeatureExtractor/MobilenetV1/Conv2d_7_depthwise/BatchNorm/beta"
  input: "save/RestoreV2:169"
  attr {
    key: "T"
    value {
      type: DT_FLOAT
    }
  }
  attr {
    key: "_class"
    value {
      list {
        s: "loc:@FeatureExtractor/MobilenetV1/Conv2d_7_depthwise/BatchNorm/beta"
      }
    }
  }
  attr {
    key: "use_locking"
    value {
      b: true
    }
  }
  attr {
    key: "validate_shape"
    value {
      b: true
    }
  }
}
node {
  name: "save/Assign_170"
  op: "Assign"
  input: "FeatureExtractor/MobilenetV1/Conv2d_7_depthwise/BatchNorm/gamma"
  input: "save/RestoreV2:170"
  attr {
    key: "T"
    value {
      type: DT_FLOAT
    }
  }
  attr {
    key: "_class"
    value {
      list {
        s: "loc:@FeatureExtractor/MobilenetV1/Conv2d_7_depthwise/BatchNorm/gamma"
      }
    }
  }
  attr {
    key: "use_locking"
    value {
      b: true
    }
  }
  attr {
    key: "validate_shape"
    value {
      b: true
    }
  }
}
node {
  name: "save/Assign_171"
  op: "Assign"
  input: "FeatureExtractor/MobilenetV1/Conv2d_7_depthwise/BatchNorm/moving_mean"
  input: "save/RestoreV2:171"
  attr {
    key: "T"
    value {
      type: DT_FLOAT
    }
  }
  attr {
    key: "_class"
    value {
      list {
        s: "loc:@FeatureExtractor/MobilenetV1/Conv2d_7_depthwise/BatchNorm/moving_mean"
      }
    }
  }
  attr {
    key: "use_locking"
    value {
      b: true
    }
  }
  attr {
    key: "validate_shape"
    value {
      b: true
    }
  }
}
node {
  name: "save/Assign_172"
  op: "Assign"
  input: "FeatureExtractor/MobilenetV1/Conv2d_7_depthwise/BatchNorm/moving_variance"
  input: "save/RestoreV2:172"
  attr {
    key: "T"
    value {
      type: DT_FLOAT
    }
  }
  attr {
    key: "_class"
    value {
      list {
        s: "loc:@FeatureExtractor/MobilenetV1/Conv2d_7_depthwise/BatchNorm/moving_variance"
      }
    }
  }
  attr {
    key: "use_locking"
    value {
      b: true
    }
  }
  attr {
    key: "validate_shape"
    value {
      b: true
    }
  }
}
node {
  name: "save/Assign_173"
  op: "Assign"
  input: "FeatureExtractor/MobilenetV1/Conv2d_7_depthwise/depthwise_weights"
  input: "save/RestoreV2:173"
  attr {
    key: "T"
    value {
      type: DT_FLOAT
    }
  }
  attr {
    key: "_class"
    value {
      list {
        s: "loc:@FeatureExtractor/MobilenetV1/Conv2d_7_depthwise/depthwise_weights"
      }
    }
  }
  attr {
    key: "use_locking"
    value {
      b: true
    }
  }
  attr {
    key: "validate_shape"
    value {
      b: true
    }
  }
}
node {
  name: "save/Assign_174"
  op: "Assign"
  input: "FeatureExtractor/MobilenetV1/Conv2d_7_pointwise/BatchNorm/beta"
  input: "save/RestoreV2:174"
  attr {
    key: "T"
    value {
      type: DT_FLOAT
    }
  }
  attr {
    key: "_class"
    value {
      list {
        s: "loc:@FeatureExtractor/MobilenetV1/Conv2d_7_pointwise/BatchNorm/beta"
      }
    }
  }
  attr {
    key: "use_locking"
    value {
      b: true
    }
  }
  attr {
    key: "validate_shape"
    value {
      b: true
    }
  }
}
node {
  name: "save/Assign_175"
  op: "Assign"
  input: "FeatureExtractor/MobilenetV1/Conv2d_7_pointwise/BatchNorm/gamma"
  input: "save/RestoreV2:175"
  attr {
    key: "T"
    value {
      type: DT_FLOAT
    }
  }
  attr {
    key: "_class"
    value {
      list {
        s: "loc:@FeatureExtractor/MobilenetV1/Conv2d_7_pointwise/BatchNorm/gamma"
      }
    }
  }
  attr {
    key: "use_locking"
    value {
      b: true
    }
  }
  attr {
    key: "validate_shape"
    value {
      b: true
    }
  }
}
node {
  name: "save/Assign_176"
  op: "Assign"
  input: "FeatureExtractor/MobilenetV1/Conv2d_7_pointwise/BatchNorm/moving_mean"
  input: "save/RestoreV2:176"
  attr {
    key: "T"
    value {
      type: DT_FLOAT
    }
  }
  attr {
    key: "_class"
    value {
      list {
        s: "loc:@FeatureExtractor/MobilenetV1/Conv2d_7_pointwise/BatchNorm/moving_mean"
      }
    }
  }
  attr {
    key: "use_locking"
    value {
      b: true
    }
  }
  attr {
    key: "validate_shape"
    value {
      b: true
    }
  }
}
node {
  name: "save/Assign_177"
  op: "Assign"
  input: "FeatureExtractor/MobilenetV1/Conv2d_7_pointwise/BatchNorm/moving_variance"
  input: "save/RestoreV2:177"
  attr {
    key: "T"
    value {
      type: DT_FLOAT
    }
  }
  attr {
    key: "_class"
    value {
      list {
        s: "loc:@FeatureExtractor/MobilenetV1/Conv2d_7_pointwise/BatchNorm/moving_variance"
      }
    }
  }
  attr {
    key: "use_locking"
    value {
      b: true
    }
  }
  attr {
    key: "validate_shape"
    value {
      b: true
    }
  }
}
node {
  name: "save/Assign_178"
  op: "Assign"
  input: "FeatureExtractor/MobilenetV1/Conv2d_7_pointwise/weights"
  input: "save/RestoreV2:178"
  attr {
    key: "T"
    value {
      type: DT_FLOAT
    }
  }
  attr {
    key: "_class"
    value {
      list {
        s: "loc:@FeatureExtractor/MobilenetV1/Conv2d_7_pointwise/weights"
      }
    }
  }
  attr {
    key: "use_locking"
    value {
      b: true
    }
  }
  attr {
    key: "validate_shape"
    value {
      b: true
    }
  }
}
node {
  name: "save/Assign_179"
  op: "Assign"
  input: "FeatureExtractor/MobilenetV1/Conv2d_8_depthwise/BatchNorm/beta"
  input: "save/RestoreV2:179"
  attr {
    key: "T"
    value {
      type: DT_FLOAT
    }
  }
  attr {
    key: "_class"
    value {
      list {
        s: "loc:@FeatureExtractor/MobilenetV1/Conv2d_8_depthwise/BatchNorm/beta"
      }
    }
  }
  attr {
    key: "use_locking"
    value {
      b: true
    }
  }
  attr {
    key: "validate_shape"
    value {
      b: true
    }
  }
}
node {
  name: "save/Assign_180"
  op: "Assign"
  input: "FeatureExtractor/MobilenetV1/Conv2d_8_depthwise/BatchNorm/gamma"
  input: "save/RestoreV2:180"
  attr {
    key: "T"
    value {
      type: DT_FLOAT
    }
  }
  attr {
    key: "_class"
    value {
      list {
        s: "loc:@FeatureExtractor/MobilenetV1/Conv2d_8_depthwise/BatchNorm/gamma"
      }
    }
  }
  attr {
    key: "use_locking"
    value {
      b: true
    }
  }
  attr {
    key: "validate_shape"
    value {
      b: true
    }
  }
}
node {
  name: "save/Assign_181"
  op: "Assign"
  input: "FeatureExtractor/MobilenetV1/Conv2d_8_depthwise/BatchNorm/moving_mean"
  input: "save/RestoreV2:181"
  attr {
    key: "T"
    value {
      type: DT_FLOAT
    }
  }
  attr {
    key: "_class"
    value {
      list {
        s: "loc:@FeatureExtractor/MobilenetV1/Conv2d_8_depthwise/BatchNorm/moving_mean"
      }
    }
  }
  attr {
    key: "use_locking"
    value {
      b: true
    }
  }
  attr {
    key: "validate_shape"
    value {
      b: true
    }
  }
}
node {
  name: "save/Assign_182"
  op: "Assign"
  input: "FeatureExtractor/MobilenetV1/Conv2d_8_depthwise/BatchNorm/moving_variance"
  input: "save/RestoreV2:182"
  attr {
    key: "T"
    value {
      type: DT_FLOAT
    }
  }
  attr {
    key: "_class"
    value {
      list {
        s: "loc:@FeatureExtractor/MobilenetV1/Conv2d_8_depthwise/BatchNorm/moving_variance"
      }
    }
  }
  attr {
    key: "use_locking"
    value {
      b: true
    }
  }
  attr {
    key: "validate_shape"
    value {
      b: true
    }
  }
}
node {
  name: "save/Assign_183"
  op: "Assign"
  input: "FeatureExtractor/MobilenetV1/Conv2d_8_depthwise/depthwise_weights"
  input: "save/RestoreV2:183"
  attr {
    key: "T"
    value {
      type: DT_FLOAT
    }
  }
  attr {
    key: "_class"
    value {
      list {
        s: "loc:@FeatureExtractor/MobilenetV1/Conv2d_8_depthwise/depthwise_weights"
      }
    }
  }
  attr {
    key: "use_locking"
    value {
      b: true
    }
  }
  attr {
    key: "validate_shape"
    value {
      b: true
    }
  }
}
node {
  name: "save/Assign_184"
  op: "Assign"
  input: "FeatureExtractor/MobilenetV1/Conv2d_8_pointwise/BatchNorm/beta"
  input: "save/RestoreV2:184"
  attr {
    key: "T"
    value {
      type: DT_FLOAT
    }
  }
  attr {
    key: "_class"
    value {
      list {
        s: "loc:@FeatureExtractor/MobilenetV1/Conv2d_8_pointwise/BatchNorm/beta"
      }
    }
  }
  attr {
    key: "use_locking"
    value {
      b: true
    }
  }
  attr {
    key: "validate_shape"
    value {
      b: true
    }
  }
}
node {
  name: "save/Assign_185"
  op: "Assign"
  input: "FeatureExtractor/MobilenetV1/Conv2d_8_pointwise/BatchNorm/gamma"
  input: "save/RestoreV2:185"
  attr {
    key: "T"
    value {
      type: DT_FLOAT
    }
  }
  attr {
    key: "_class"
    value {
      list {
        s: "loc:@FeatureExtractor/MobilenetV1/Conv2d_8_pointwise/BatchNorm/gamma"
      }
    }
  }
  attr {
    key: "use_locking"
    value {
      b: true
    }
  }
  attr {
    key: "validate_shape"
    value {
      b: true
    }
  }
}
node {
  name: "save/Assign_186"
  op: "Assign"
  input: "FeatureExtractor/MobilenetV1/Conv2d_8_pointwise/BatchNorm/moving_mean"
  input: "save/RestoreV2:186"
  attr {
    key: "T"
    value {
      type: DT_FLOAT
    }
  }
  attr {
    key: "_class"
    value {
      list {
        s: "loc:@FeatureExtractor/MobilenetV1/Conv2d_8_pointwise/BatchNorm/moving_mean"
      }
    }
  }
  attr {
    key: "use_locking"
    value {
      b: true
    }
  }
  attr {
    key: "validate_shape"
    value {
      b: true
    }
  }
}
node {
  name: "save/Assign_187"
  op: "Assign"
  input: "FeatureExtractor/MobilenetV1/Conv2d_8_pointwise/BatchNorm/moving_variance"
  input: "save/RestoreV2:187"
  attr {
    key: "T"
    value {
      type: DT_FLOAT
    }
  }
  attr {
    key: "_class"
    value {
      list {
        s: "loc:@FeatureExtractor/MobilenetV1/Conv2d_8_pointwise/BatchNorm/moving_variance"
      }
    }
  }
  attr {
    key: "use_locking"
    value {
      b: true
    }
  }
  attr {
    key: "validate_shape"
    value {
      b: true
    }
  }
}
node {
  name: "save/Assign_188"
  op: "Assign"
  input: "FeatureExtractor/MobilenetV1/Conv2d_8_pointwise/weights"
  input: "save/RestoreV2:188"
  attr {
    key: "T"
    value {
      type: DT_FLOAT
    }
  }
  attr {
    key: "_class"
    value {
      list {
        s: "loc:@FeatureExtractor/MobilenetV1/Conv2d_8_pointwise/weights"
      }
    }
  }
  attr {
    key: "use_locking"
    value {
      b: true
    }
  }
  attr {
    key: "validate_shape"
    value {
      b: true
    }
  }
}
node {
  name: "save/Assign_189"
  op: "Assign"
  input: "FeatureExtractor/MobilenetV1/Conv2d_9_depthwise/BatchNorm/beta"
  input: "save/RestoreV2:189"
  attr {
    key: "T"
    value {
      type: DT_FLOAT
    }
  }
  attr {
    key: "_class"
    value {
      list {
        s: "loc:@FeatureExtractor/MobilenetV1/Conv2d_9_depthwise/BatchNorm/beta"
      }
    }
  }
  attr {
    key: "use_locking"
    value {
      b: true
    }
  }
  attr {
    key: "validate_shape"
    value {
      b: true
    }
  }
}
node {
  name: "save/Assign_190"
  op: "Assign"
  input: "FeatureExtractor/MobilenetV1/Conv2d_9_depthwise/BatchNorm/gamma"
  input: "save/RestoreV2:190"
  attr {
    key: "T"
    value {
      type: DT_FLOAT
    }
  }
  attr {
    key: "_class"
    value {
      list {
        s: "loc:@FeatureExtractor/MobilenetV1/Conv2d_9_depthwise/BatchNorm/gamma"
      }
    }
  }
  attr {
    key: "use_locking"
    value {
      b: true
    }
  }
  attr {
    key: "validate_shape"
    value {
      b: true
    }
  }
}
node {
  name: "save/Assign_191"
  op: "Assign"
  input: "FeatureExtractor/MobilenetV1/Conv2d_9_depthwise/BatchNorm/moving_mean"
  input: "save/RestoreV2:191"
  attr {
    key: "T"
    value {
      type: DT_FLOAT
    }
  }
  attr {
    key: "_class"
    value {
      list {
        s: "loc:@FeatureExtractor/MobilenetV1/Conv2d_9_depthwise/BatchNorm/moving_mean"
      }
    }
  }
  attr {
    key: "use_locking"
    value {
      b: true
    }
  }
  attr {
    key: "validate_shape"
    value {
      b: true
    }
  }
}
node {
  name: "save/Assign_192"
  op: "Assign"
  input: "FeatureExtractor/MobilenetV1/Conv2d_9_depthwise/BatchNorm/moving_variance"
  input: "save/RestoreV2:192"
  attr {
    key: "T"
    value {
      type: DT_FLOAT
    }
  }
  attr {
    key: "_class"
    value {
      list {
        s: "loc:@FeatureExtractor/MobilenetV1/Conv2d_9_depthwise/BatchNorm/moving_variance"
      }
    }
  }
  attr {
    key: "use_locking"
    value {
      b: true
    }
  }
  attr {
    key: "validate_shape"
    value {
      b: true
    }
  }
}
node {
  name: "save/Assign_193"
  op: "Assign"
  input: "FeatureExtractor/MobilenetV1/Conv2d_9_depthwise/depthwise_weights"
  input: "save/RestoreV2:193"
  attr {
    key: "T"
    value {
      type: DT_FLOAT
    }
  }
  attr {
    key: "_class"
    value {
      list {
        s: "loc:@FeatureExtractor/MobilenetV1/Conv2d_9_depthwise/depthwise_weights"
      }
    }
  }
  attr {
    key: "use_locking"
    value {
      b: true
    }
  }
  attr {
    key: "validate_shape"
    value {
      b: true
    }
  }
}
node {
  name: "save/Assign_194"
  op: "Assign"
  input: "FeatureExtractor/MobilenetV1/Conv2d_9_pointwise/BatchNorm/beta"
  input: "save/RestoreV2:194"
  attr {
    key: "T"
    value {
      type: DT_FLOAT
    }
  }
  attr {
    key: "_class"
    value {
      list {
        s: "loc:@FeatureExtractor/MobilenetV1/Conv2d_9_pointwise/BatchNorm/beta"
      }
    }
  }
  attr {
    key: "use_locking"
    value {
      b: true
    }
  }
  attr {
    key: "validate_shape"
    value {
      b: true
    }
  }
}
node {
  name: "save/Assign_195"
  op: "Assign"
  input: "FeatureExtractor/MobilenetV1/Conv2d_9_pointwise/BatchNorm/gamma"
  input: "save/RestoreV2:195"
  attr {
    key: "T"
    value {
      type: DT_FLOAT
    }
  }
  attr {
    key: "_class"
    value {
      list {
        s: "loc:@FeatureExtractor/MobilenetV1/Conv2d_9_pointwise/BatchNorm/gamma"
      }
    }
  }
  attr {
    key: "use_locking"
    value {
      b: true
    }
  }
  attr {
    key: "validate_shape"
    value {
      b: true
    }
  }
}
node {
  name: "save/Assign_196"
  op: "Assign"
  input: "FeatureExtractor/MobilenetV1/Conv2d_9_pointwise/BatchNorm/moving_mean"
  input: "save/RestoreV2:196"
  attr {
    key: "T"
    value {
      type: DT_FLOAT
    }
  }
  attr {
    key: "_class"
    value {
      list {
        s: "loc:@FeatureExtractor/MobilenetV1/Conv2d_9_pointwise/BatchNorm/moving_mean"
      }
    }
  }
  attr {
    key: "use_locking"
    value {
      b: true
    }
  }
  attr {
    key: "validate_shape"
    value {
      b: true
    }
  }
}
node {
  name: "save/Assign_197"
  op: "Assign"
  input: "FeatureExtractor/MobilenetV1/Conv2d_9_pointwise/BatchNorm/moving_variance"
  input: "save/RestoreV2:197"
  attr {
    key: "T"
    value {
      type: DT_FLOAT
    }
  }
  attr {
    key: "_class"
    value {
      list {
        s: "loc:@FeatureExtractor/MobilenetV1/Conv2d_9_pointwise/BatchNorm/moving_variance"
      }
    }
  }
  attr {
    key: "use_locking"
    value {
      b: true
    }
  }
  attr {
    key: "validate_shape"
    value {
      b: true
    }
  }
}
node {
  name: "save/Assign_198"
  op: "Assign"
  input: "FeatureExtractor/MobilenetV1/Conv2d_9_pointwise/weights"
  input: "save/RestoreV2:198"
  attr {
    key: "T"
    value {
      type: DT_FLOAT
    }
  }
  attr {
    key: "_class"
    value {
      list {
        s: "loc:@FeatureExtractor/MobilenetV1/Conv2d_9_pointwise/weights"
      }
    }
  }
  attr {
    key: "use_locking"
    value {
      b: true
    }
  }
  attr {
    key: "validate_shape"
    value {
      b: true
    }
  }
}
node {
  name: "save/Assign_199"
  op: "Assign"
  input: "global_step"
  input: "save/RestoreV2:199"
  attr {
    key: "T"
    value {
      type: DT_INT64
    }
  }
  attr {
    key: "_class"
    value {
      list {
        s: "loc:@global_step"
      }
    }
  }
  attr {
    key: "use_locking"
    value {
      b: true
    }
  }
  attr {
    key: "validate_shape"
    value {
      b: true
    }
  }
}
node {
  name: "save/restore_all"
  op: "NoOp"
  input: "^save/Assign"
  input: "^save/Assign_1"
  input: "^save/Assign_10"
  input: "^save/Assign_100"
  input: "^save/Assign_101"
  input: "^save/Assign_102"
  input: "^save/Assign_103"
  input: "^save/Assign_104"
  input: "^save/Assign_105"
  input: "^save/Assign_106"
  input: "^save/Assign_107"
  input: "^save/Assign_108"
  input: "^save/Assign_109"
  input: "^save/Assign_11"
  input: "^save/Assign_110"
  input: "^save/Assign_111"
  input: "^save/Assign_112"
  input: "^save/Assign_113"
  input: "^save/Assign_114"
  input: "^save/Assign_115"
  input: "^save/Assign_116"
  input: "^save/Assign_117"
  input: "^save/Assign_118"
  input: "^save/Assign_119"
  input: "^save/Assign_12"
  input: "^save/Assign_120"
  input: "^save/Assign_121"
  input: "^save/Assign_122"
  input: "^save/Assign_123"
  input: "^save/Assign_124"
  input: "^save/Assign_125"
  input: "^save/Assign_126"
  input: "^save/Assign_127"
  input: "^save/Assign_128"
  input: "^save/Assign_129"
  input: "^save/Assign_13"
  input: "^save/Assign_130"
  input: "^save/Assign_131"
  input: "^save/Assign_132"
  input: "^save/Assign_133"
  input: "^save/Assign_134"
  input: "^save/Assign_135"
  input: "^save/Assign_136"
  input: "^save/Assign_137"
  input: "^save/Assign_138"
  input: "^save/Assign_139"
  input: "^save/Assign_14"
  input: "^save/Assign_140"
  input: "^save/Assign_141"
  input: "^save/Assign_142"
  input: "^save/Assign_143"
  input: "^save/Assign_144"
  input: "^save/Assign_145"
  input: "^save/Assign_146"
  input: "^save/Assign_147"
  input: "^save/Assign_148"
  input: "^save/Assign_149"
  input: "^save/Assign_15"
  input: "^save/Assign_150"
  input: "^save/Assign_151"
  input: "^save/Assign_152"
  input: "^save/Assign_153"
  input: "^save/Assign_154"
  input: "^save/Assign_155"
  input: "^save/Assign_156"
  input: "^save/Assign_157"
  input: "^save/Assign_158"
  input: "^save/Assign_159"
  input: "^save/Assign_16"
  input: "^save/Assign_160"
  input: "^save/Assign_161"
  input: "^save/Assign_162"
  input: "^save/Assign_163"
  input: "^save/Assign_164"
  input: "^save/Assign_165"
  input: "^save/Assign_166"
  input: "^save/Assign_167"
  input: "^save/Assign_168"
  input: "^save/Assign_169"
  input: "^save/Assign_17"
  input: "^save/Assign_170"
  input: "^save/Assign_171"
  input: "^save/Assign_172"
  input: "^save/Assign_173"
  input: "^save/Assign_174"
  input: "^save/Assign_175"
  input: "^save/Assign_176"
  input: "^save/Assign_177"
  input: "^save/Assign_178"
  input: "^save/Assign_179"
  input: "^save/Assign_18"
  input: "^save/Assign_180"
  input: "^save/Assign_181"
  input: "^save/Assign_182"
  input: "^save/Assign_183"
  input: "^save/Assign_184"
  input: "^save/Assign_185"
  input: "^save/Assign_186"
  input: "^save/Assign_187"
  input: "^save/Assign_188"
  input: "^save/Assign_189"
  input: "^save/Assign_19"
  input: "^save/Assign_190"
  input: "^save/Assign_191"
  input: "^save/Assign_192"
  input: "^save/Assign_193"
  input: "^save/Assign_194"
  input: "^save/Assign_195"
  input: "^save/Assign_196"
  input: "^save/Assign_197"
  input: "^save/Assign_198"
  input: "^save/Assign_199"
  input: "^save/Assign_2"
  input: "^save/Assign_20"
  input: "^save/Assign_21"
  input: "^save/Assign_22"
  input: "^save/Assign_23"
  input: "^save/Assign_24"
  input: "^save/Assign_25"
  input: "^save/Assign_26"
  input: "^save/Assign_27"
  input: "^save/Assign_28"
  input: "^save/Assign_29"
  input: "^save/Assign_3"
  input: "^save/Assign_30"
  input: "^save/Assign_31"
  input: "^save/Assign_32"
  input: "^save/Assign_33"
  input: "^save/Assign_34"
  input: "^save/Assign_35"
  input: "^save/Assign_36"
  input: "^save/Assign_37"
  input: "^save/Assign_38"
  input: "^save/Assign_39"
  input: "^save/Assign_4"
  input: "^save/Assign_40"
  input: "^save/Assign_41"
  input: "^save/Assign_42"
  input: "^save/Assign_43"
  input: "^save/Assign_44"
  input: "^save/Assign_45"
  input: "^save/Assign_46"
  input: "^save/Assign_47"
  input: "^save/Assign_48"
  input: "^save/Assign_49"
  input: "^save/Assign_5"
  input: "^save/Assign_50"
  input: "^save/Assign_51"
  input: "^save/Assign_52"
  input: "^save/Assign_53"
  input: "^save/Assign_54"
  input: "^save/Assign_55"
  input: "^save/Assign_56"
  input: "^save/Assign_57"
  input: "^save/Assign_58"
  input: "^save/Assign_59"
  input: "^save/Assign_6"
  input: "^save/Assign_60"
  input: "^save/Assign_61"
  input: "^save/Assign_62"
  input: "^save/Assign_63"
  input: "^save/Assign_64"
  input: "^save/Assign_65"
  input: "^save/Assign_66"
  input: "^save/Assign_67"
  input: "^save/Assign_68"
  input: "^save/Assign_69"
  input: "^save/Assign_7"
  input: "^save/Assign_70"
  input: "^save/Assign_71"
  input: "^save/Assign_72"
  input: "^save/Assign_73"
  input: "^save/Assign_74"
  input: "^save/Assign_75"
  input: "^save/Assign_76"
  input: "^save/Assign_77"
  input: "^save/Assign_78"
  input: "^save/Assign_79"
  input: "^save/Assign_8"
  input: "^save/Assign_80"
  input: "^save/Assign_81"
  input: "^save/Assign_82"
  input: "^save/Assign_83"
  input: "^save/Assign_84"
  input: "^save/Assign_85"
  input: "^save/Assign_86"
  input: "^save/Assign_87"
  input: "^save/Assign_88"
  input: "^save/Assign_89"
  input: "^save/Assign_9"
  input: "^save/Assign_90"
  input: "^save/Assign_91"
  input: "^save/Assign_92"
  input: "^save/Assign_93"
  input: "^save/Assign_94"
  input: "^save/Assign_95"
  input: "^save/Assign_96"
  input: "^save/Assign_97"
  input: "^save/Assign_98"
  input: "^save/Assign_99"
}
versions {
  producer: 27
}
